checkpoint/TransE-99.ckpt (torch, 21287 bytes, 2 tensors)

ent_embeddings.weight f4 [87, 50]
00000000: 9280 9a3d 1d0d a7bd 31bb de3c 8cf5 063c
00000010: 8c1e e53d 30e3 f13d 81d0 5e3e 4475 8a3d
00000020: d703 10be 84a6 063e 348a c1bd 78e9 233d
00000030: d00b 9abd 9322 7fbd c3c0 6b3e c268 103e
00000040: 344b f4bc 55ce 48bc e0f2 c8bd 5bc7 963d
00000050: 7306 223d e261 10be f0c7 e7bd eef3 ff3d
00000060: 2b6d 9b3d 26fa 18be 3ec3 793d ac7a 973d
00000070: 3c52 fabd 22eb 093e ac5b 3b3e a8c3 f33d
00000080: 24b0 10be 9fef 73bd 3fa7 ddbd b317 c33d
00000090: de61 113d 4e8d 48be c6fe c53d 5f7b 043d
000000a0: 4a15 d43c ff5e e93d 7df4 093d 90f4 8fbd
000000b0: 1f3c 35be 98ba 3bbe ff13 86bd 2f8e 3bbd
000000c0: f552 373e 48da cdbd f16f 8e3d a8bb ea3d
000000d0: 79e5 8b3e 9367 793d f4d0 d5bd 3851 1a3d
000000e0: ab1c ddbd 1530 0ebe c5a4 b9bd 3d08 dc3d
000000f0: 054c fdbc e36e b6bd f6b1 f43d 419c 8f3d
00000100: fb8f 05bd e868 a23d 3413 26be 34de 0bbd
00000110: f686 9c3d 34c7 363d 5960 2b3e 42b4 1b3e
00000120: d63c 0ebd cc99 c23d cbad 9d3c 9ec6 32be
00000130: 8bad 00be 4a17 b33d 69c9 31bd f8f1 b8be
00000140: e5a9 0abd dda0 81bd e892 01be 45b8 a53d
00000150: c763 bf3d 0d01 3e3e 9eea 82bd 5a39 943e
00000160: b8cb 8bbd fe6b 173c 2f62 a5bd 1921 133e
00000170: 8bf2 90bd 1c7c edbd 2408 b8bc a727 8a3d
00000180: e20e 153d e797 873d 068e 003e 7c6d 9fbd
00000190: 0e42 e6bd 1e46 4c3e ce62 cb3c b588 123e
000001a0: 4931 e1bd 8706 203e 501d 3b3e db4e 223e
000001b0: cecf 1c3e 70ad b63d b875 95bb c9cb 2dbe
000001c0: b794 4ebe 52fa ae3d 0ee1 d4bc 3cd7 c23d
000001d0: c0fd 15be b981 ecbd d13f 08be 3102 503e
000001e0: c52f 3fbe d6bc 0c3e 45a6 2bbe 75a8 1d3e
000001f0: b380 32be bf6c 153e 54b0 043e 7ef7 31be
00000200: 7578 4ebd 58f0 c93d 9bbf 5fbd 937f c13d
00000210: 66f7 f63d 7cd8 72bd e853 64be 2672 1d3e
00000220: 7ef5 30bd 5393 183e e8c0 17bd 9de4 373e
00000230: 5b02 4dbe 0e10 1bbb 7cbc 173e ef0c 85bd
00000240: 746a 693d c4b7 67bd fcb8 23be 34d4 46be
00000250: e08c 323e 8214 d93d 4d02 9a3d 876b 43be
00000260: dd34 983d b765 843e 3c85 383e 2b0e d2bd
00000270: fa3f 7a3d 81aa 19be 545b 973d 998a 0d3e
00000280: dc71 9fbd 9e0a 803e 42e8 68be 9399 2d3e
00000290: 1cc8 573e fccf 4bbe d614 2abe 978d 60bd
000002a0: 2ab3 593e a7bf 1bbe 744e 943d 7981 003d
000002b0: aaf3 003e 0591 e0bc 9ef8 f03c 4bcf b6bc
000002c0: afdb 5abe 00b5 ffbd f6e5 60be 3f2a 313e
000002d0: 0370 473e 98d8 72bd 222d 073e fb86 0a3d
000002e0: 3131 9cbd c5eb 6e3d 1c0e 2f3e 8ef0 8bbd
000002f0: 6d78 19bd 435d 24be 6ce1 55bb 3af4 b03d
00000300: 63bc 443e 1dd5 a4bd 1660 2ebe d42c 00be
00000310: 1c2b 1dbe e240 34bd d730 c2bc 28e3 35be
00000320: da53 703c 31ca 5d3e a403 00be e3a9 91bd
00000330: f651 d3bc 88a1 263c e089 e9bb 5c03 a3bd
00000340: 2190 bc3d af91 2b3d 196f 3d3d 4321 1abe
00000350: 0607 19be c4fe c33d 5de8 073c 566c 293c
00000360: 7a36 aabd 051e 6a3e 2e3b 673d ec38 b13d
00000370: e9a6 b2bd f549 1f3e d39e 243e de7c 0b3e
00000380: a60d a43c 447d debd d43e 9f3b 3480 2cba
00000390: 6c97 2fbd e8bf 24be c616 0f3d e950 43bd
000003a0: 8079 9d3b 0ecd f03d ea79 c03d f057 b7bd
000003b0: 2211 403d a192 60bd 3fcc 8ebd 9375 a3bd
000003c0: 3eec 02be 448f 99bb 8cda 7d3d 6741 603e
000003d0: 0590 00be b7e8 04be c457 bcbd 3623 c53d
000003e0: e242 21be 7ba6 12be ed5b 49be 234b 52be
000003f0: 2160 483e 5d24 20be aa78 69bd 7e81 46be
0.07544054 -0.08156798 0.02718887 0.008237254 0.11187467 0.11810911 0.21759225 0.06760648
-0.14063965 0.13149458 -0.09450188 0.040017575 -0.07521784 -0.062288832 0.23022752 0.14102462
-0.029821016 -0.012256225 -0.0981195 0.07362243 0.03955693 -0.1409984 -0.11317432 0.12497698
0.075891815 -0.14939174 0.060977213 0.07396445 -0.12222716 0.13468602 0.18296689 0.11902553
-0.14129692 -0.059554692 -0.10822915 0.09526005 0.035493724 -0.19585153 0.09667735 0.03234422
0.025889058 0.11395072 0.033680428 -0.070290685 -0.17698716 -0.18332899 -0.06546783 -0.045789894
0.1790274 -0.100513995 0.06954945 0.11461574 0.2732351 0.06088979 -0.10440245 0.037675112
-0.107964836 -0.1388553 -0.090646304 0.10743759 -0.030920038 -0.08907869 0.11948006 0.07012225
-0.032608014 0.079301655 -0.16218263 -0.034147456 0.07642929 0.04462357 0.16735972 0.15205482
-0.034725986 0.09501991 0.01924791 -0.17458579 -0.12566201 0.087446764 -0.04340497 -0.36122108
-0.03385343 -0.0632951 -0.12653697 0.08091787 0.09345203 0.18555088 -0.06392406 0.28950006
-0.06825966 0.009242056 -0.08075368 0.14368095 -0.070775114 -0.115959376 -0.02246482 0.06745844
0.036391146 0.0662077 0.12554178 -0.07784554 -0.11243068 0.19948623 0.024827387 0.14309962
-0.109957285 0.1562749 0.182729 0.15850393 0.15313646 0.08919799 -0.0045611523 -0.16972269
-0.20173918 0.085438386 -0.02598622 0.09513709 -0.14647579 -0.1154818 -0.13305594 0.20313336
-0.18670566 0.1374391 -0.16762646 0.15396293 -0.17431907 0.14592265 0.12957889 -0.17379567
-0.050407846 0.09860295 -0.05462609 0.09448161 0.12058906 -0.059288487 -0.22297633 0.15375575
-0.04320287 0.1489995 -0.037049204 0.17958303 -0.2002043 -0.0023660692 0.14817995 -0.064966075
0.056986287 -0.056571737 -0.15988535 -0.19416887 0.17436552 0.10599615 0.0751997 -0.19083987
0.07431958 0.25858852 0.18019575 -0.102566086 0.06109617 -0.15006448 0.07390466 0.13822402
-0.07785389 0.250081 -0.2274485 0.16953115 0.2107243 -0.19903558 -0.16609511 -0.05482253
0.21259752 -0.15209828 0.07241526 0.031373475 0.1259295 -0.0274129 0.029415425 -0.022315642
-0.21372865 -0.12485695 -0.21962723 0.17301272 0.19476323 -0.05928859 0.1320081 0.033820134
-0.0762657 0.058330316 0.17095226 -0.068329915 -0.037468363 -0.16051202 -0.0032635583 0.086403325
0.19212489 -0.08048461 -0.17028841 -0.125171 -0.15348476 -0.04400719 -0.02370493 -0.17762434
0.014668429 0.21659161 -0.12501389 -0.071124814 -0.025795918 0.010170348 -0.0071270317 -0.07959625
0.09207178 0.04188698 0.04624853 -0.15051751 -0.14944085 0.09570077 0.008295146 0.010340771
-0.08311172 0.22863014 0.056452923 0.08653435 -0.08723242 0.15555556 0.16076212 0.13621852
0.02002604 -0.10863736 0.0048597846 -0.0006580383 -0.042869017 -0.16088831 0.034933828 -0.047684584
0.0048057437 0.11757861 0.09398253 -0.089523196 0.04689134 -0.054827336 -0.069725506 -0.0798141
-0.12785432 -0.004686268 0.061976 0.21899949 -0.12554939 -0.12979399 -0.091964275 0.096258566
-0.1574817 -0.1432132 -0.19663973 -0.20536475 0.1956792 -0.15638871 -0.05699984 -0.19385335

rel_embeddings.weight f4 [14, 50]
00000000: 4881 78ba 1007 33be 4ddf 1fbe 6e32 25be
00000010: 1758 ed3d 2419 823e 6333 613e d069 2d3e
00000020: aa52 343d 0278 ef3c 2afc b93b 8146 363e
00000030: b5fc 993e df4a 55be 41eb 46be 7eba 88be
00000040: 09b3 953e a58d 56be e039 9a3e 36b2 173e
00000050: 38e4 e6bc 3299 9a3e efa3 01be 7917 52be
00000060: 21a8 69be 01d0 ff3d 7766 84be 494a bb3d
00000070: 6913 44be d353 81be a6a2 3dbe 5b17 67be
00000080: e2be 20be 2100 cfbd 6783 483e 0d3f 2b3e
00000090: d61a 723e bba5 193e 09d0 fabd 5f98 d0bd
000000a0: bc80 c0bb a1a8 1e3d 28fe 66be f405 9abe
000000b0: 296c 04be f9b9 c03d 029b 963d de79 8ebe
000000c0: 1ea6 49be 3b3a 943e cabe 18be 1d2a 77be
000000d0: b2dd d83d 3d6e e83d db11 3b3c 0d0b e53d
000000e0: 3daf 333e 973a 29be c3fa 9bbd 59eb bcbd
000000f0: 855d 653e 4816 1abe b412 cf3d 40a7 473e
00000100: 7103 5dbe 761d 6abe 48c3 973e 1a3f 2fbd
00000110: 4d48 00bb b263 cabc 607f 6ebe f6c3 763e
00000120: abd1 3dbe 35ef 1abe 3f56 233e d5b6 2d3e
00000130: fd81 653e 8796 863d 4388 17be 414a 46be
00000140: ae1c 95be 4b93 c6bd b9e2 55be 30c3 233c
00000150: 0695 0dbe ba46 91be 6963 ffbd c70c ba3d
00000160: 7ac8 acbc f75e 99bc fe1f fbbd 3485 6abe
00000170: a8d9 853d e4b0 de3c eaff 6a3e 3dac e23d
00000180: 32bc da3d 4351 0fbe 7b87 873c 89c7 2dbe
00000190: 06d2 003e 356a e4bd fcc7 88be aa54 7b3e
000001a0: b3e8 0a3e 8cb8 283e a562 8d3e 4662 1c3e
000001b0: 9334 bcbd f38c 5c3d 8583 d33d 99a2 083e
000001c0: 507a 3f3d 0003 323e 58f7 35bd cc52 763c
000001d0: 21f6 963e e34c ce3d e25c 4f3e fcd2 a93d
000001e0: e356 103e 1cb1 ac3d 4436 203e f200 5abc
000001f0: af9f c13d bb3b 893e abdc 863e dac7 0b3d
00000200: 8f49 f33c 5f78 67be f876 ad3d d1af 67bd
00000210: e115 873d 5e25 973e d4d2 7dbb d728 373e
00000220: 209d e4bd cbfe 99be a3f5 993e 6017 1f3e
00000230: ba2c 913e d53d 81be e112 953e 4ea1 90bc
00000240: d83d 593e c1f5 1c3e 663c 063e 4ac2 8dbe
00000250: 68b4 f63d ad85 89be 095c 5dbe 0ba6 923c
00000260: 6e98 07bd c546 793d 4e01 913e 45fc 363e
00000270: a3f4 1f3e 259e 903e c04f 153e 5205 2abe
00000280: 46ce 643e 9d3b 43bd b99c a53d e772 6ebe
00000290: b4c9 bdbd 01cc 183e 70ad 21be a98a e7bd
000002a0: bbfb 573e 5147 84bd 6fb7 843e 3922 fc3d
000002b0: ef30 b7bc 5aa0 44bd b0f9 56bd 7e78 90be
000002c0: 865f 80be fce9 aa3d 0cce 88bd c686 713e
000002d0: 45a7 083e 778a 34be aaac cfbd 85bc 63bd
000002e0: 2d00 fabd 6b68 06be 249b ef3c f8c5 833e
000002f0: e911 67bd 5a52 80be 79cb 3d3e 9dcf 81be
00000300: 9ba4 80bd 7c30 96be 3729 d43d f5d2 983e
00000310: bd23 f73d 50c8 673d 2471 e9bd 42dc 88be
00000320: e37e 803e 97e7 9e3c d098 4c3e 01db a83d
00000330: dab7 603e 44f8 8cbe e256 af3c 042a d33d
00000340: 3c5e 9f3e 86b8 5b3e f692 763e 87c6 8a3e
00000350: e56b 543e c8ef a23e b48e 253e 26a5 bfbd
00000360: ff2b a43d fd60 15bd 48c1 f03c 48e5 d83d
00000370: b05d 0abc 8bb4 3abd 2570 9a3d b9f4 48be
00000380: 422f a5be 0074 85be 2702 6fbd 9ab8 73bd
00000390: 8f53 68be e2c6 143e 06a2 4a3e 84fe 8f3e
000003a0: 42c2 9abd 9812 de3d 5621 7ebe 5711 37be
000003b0: f1a0 1d3c 71ad b4bd 50d5 cbbd aa45 703e
000003c0: 2af1 d53d e21c afbc 2c14 d8ba b9ec 363d
000003d0: ff48 153e 7605 803e 0720 a53d c2d2 173e
000003e0: 2f01 27bd 67dd 4dbd b07e 66be 7067 64be
000003f0: fe85 a33d 254f 9dbb 9727 51bd c87d 9dbd
-0.00094797136 -0.17483163 -0.15612526 -0.16132519 0.115890674 0.25409806 0.21992259 0.16934896
0.044024147 0.029232029 0.0056758123 0.17800333 0.30075613 -0.20829342 -0.1942568 -0.26704782
0.29238155 -0.2095247 0.3012228 0.14814076 -0.028184995 0.30195004 -0.12660192 -0.20516767
-0.22818042 0.124908455 -0.25859424 0.09145028 -0.1914803 -0.25259265 -0.18519077 -0.22567503
-0.15697816 -0.101074465 0.19581376 0.1672327 0.2364305 0.15004627 -0.12246711 -0.101853125
-0.0058747213 0.038735036 -0.2255789 -0.30082667 -0.12931885 0.094104715 0.07353784 -0.27827352
-0.19692275 0.28950676 -0.1491653 -0.24137159 0.1058916 0.11349151 0.011417831 0.111837484
0.17547317 -0.16526257 -0.076161884 -0.092245765 0.22398956 -0.15047562 0.10110989 0.19497395
-0.21583344 -0.22862801 0.29641175 -0.042784788 -0.0019574345 -0.024705742 -0.23290777 0.2409819
-0.18537013 -0.15130313 0.15950869 0.16964276 0.22412868 0.065716796 -0.14798073 -0.19364263
-0.29123443 -0.09696063 -0.20887269 0.009995267 -0.13826379 -0.28374273 -0.12470133 0.09084468
-0.021091688 -0.01872204 -0.122619614 -0.22902375 0.06535655 0.027183957 0.22949186 0.11068008
0.10680427 -0.13995843 0.016544094 -0.16970648 0.12580118 -0.1115307 -0.26715076 0.24544016
0.1356533 0.16476649 0.27614322 0.15271863 -0.09189715 0.053845357 0.1032782 0.13343276
0.046747506 0.17383957 -0.04442534 0.015034389 0.29484656 0.10073259 0.20250276 0.08292195
0.14095645 0.084322184 0.156457 -0.013305889 0.09454285 0.26803383 0.2634023 0.03412614
0.029698161 -0.22604512 0.08469957 -0.056564156 0.0659597 0.29520696 -0.00387304 0.17886673
-0.11162782 -0.30077204 0.30070218 0.1553626 0.28354436 -0.25242487 0.29115966 -0.017655041
0.21214998 0.15328123 0.13108978 -0.27687293 0.120461285 -0.268598 -0.2161714 0.017901441
-0.033104353 0.060858507 0.28321308 0.1786967 0.15620665 0.28245655 0.14581203 -0.16603592
0.22344312 -0.047664274 0.08086533 -0.2328602 -0.092669874 0.14921571 -0.15788817 -0.11305744
0.21092121 -0.06458915 0.259212 0.12311215 -0.0223622 -0.048004486 -0.052484214 -0.28216928
-0.2507288 0.0834541 -0.06679925 0.23586568 0.13345058 -0.17630945 -0.10140355 -0.055599708
-0.12207065 -0.1312577 0.029248782 0.25736976 -0.056413565 -0.2506283 0.1853465 -0.2535371
-0.06281396 -0.29333866 0.103594236 0.29848447 0.120673634 0.056587517 -0.11398533 -0.26730543
0.25096807 0.01939754 0.19980168 0.08244897 0.21945134 -0.27533162 0.021403734 0.10310748
0.31126583 0.21457109 0.24079499 0.2710459 0.20744283 0.31823564 0.16167718 -0.093576714
0.08016204 -0.03646945 0.029389039 0.10590607 -0.008445188 -0.045582335 0.07540921 -0.19624604
-0.32262617 -0.26065063 -0.058351662 -0.05950222 -0.22688125 0.14528993 0.1978837 0.28123868
-0.07556583 0.1084339 -0.24817404 -0.17877708 0.009620891 -0.08822144 -0.099527955 0.23464075
0.10446389 -0.021376077 -0.0016485504 0.04465935 0.14578627 0.25004166 0.08062749 0.14826491
-0.040772613 -0.050259974 -0.22509265 -0.22305083 0.07984541 -0.0048006945 -0.051063146 -0.076900065
