checkpoint/transe.ckpt (torch, 82463 bytes, 2 tensors)

ent_embeddings.weight f4 [87, 200]
-0.2559087 0.045938224 0.781358 0.16069046 0.7902637 -0.41390008 0.23516329 0.32241014
0.66040987 -0.66433346 0.12771903 0.6715948 0.5892232 0.45592463 -0.23045841 0.43471095
-0.118635274 0.08385533 0.63353044 0.010457405 -0.043051936 0.122036606 0.05200962 -0.23732594
-0.3287594 -0.1319578 -0.5136487 0.4305815 0.42150566 0.38517576 -0.028121982 0.31261835
-0.9506314 0.15477131 0.034848616 0.31973812 0.48094958 0.86039394 -0.40725374 -0.28700063
-0.063338354 0.51098704 -0.37555742 0.40477118 -0.4094646 0.2887013 0.99413645 0.17146453
-0.35913524 -0.42547274 -0.16832274 -0.29633072 -0.15963648 0.24421662 -0.48357683 0.7300644
0.28710818 -0.18620048 0.66302526 -0.17697887 0.12096701 0.10486911 0.20602818 -0.11814036
0.5607575 0.44023323 0.26572612 -0.38596797 0.19882685 0.2874083 -0.6954655 -0.004456779
-0.1501172 0.13553557 -0.53735185 0.48105225 -0.41040766 -0.2911968 0.87880665 -0.49226657
0.29360443 -0.21938805 -0.13969444 0.049630307 0.3971477 -0.21605182 0.09367324 -0.18843713
-0.27899274 -0.45053774 0.7891935 -0.04597923 0.9578712 -0.45867306 0.57839364 -0.8674877
0.5931754 -0.6548824 0.5164999 -0.52708167 0.054875545 -0.048938796 0.34896496 -0.34236294
-0.22765201 0.640663 -0.11158335 0.12307785 -0.17396742 -0.045670144 -0.20797458 0.43112758
0.263878 -0.4166612 0.27090126 -0.15562531 0.8243167 -0.14687243 0.19647482 0.4862579
-0.07295595 -0.16210313 0.14171119 -0.29058698 -0.28305045 -0.5050625 0.20301992 -0.037509322
0.52504414 -0.28461424 0.7192901 -0.35626757 0.06494483 0.43106338 0.37862933 -0.5160478
-0.3809481 -0.29953295 -0.48553044 0.315927 0.32490993 0.23913111 0.09393003 0.25362855
-0.67680794 -0.3388371 -0.51500016 -0.089505814 0.19408768 -0.34955537 0.03041511 0.39913023
0.11948791 -0.08683975 0.40231925 -1.1662582 0.28014362 -0.3030428 0.72354865 -0.10089666
0.6511803 0.20882763 0.42317244 0.9861469 -0.16832092 0.2228526 -0.21287484 -0.0038879984
-0.695724 -0.6996067 0.21548787 -0.122141995 0.2469199 0.7656986 -0.79754543 0.5535998
-0.38164207 -0.12404926 0.38001913 -0.6330313 0.10578366 -0.3302388 -1.0253434 -0.054339007
0.07502205 0.7667913 -0.049512632 -0.070170335 0.19836558 -0.8081376 0.07849931 -0.68269885
-0.16761981 0.09922592 0.057179872 0.23514895 0.3561633 0.8101911 0.40423617 -0.4405506
0.33925256 0.34593084 0.2540744 -0.1606872 0.40025237 -0.7014472 0.87127745 0.34159163
0.791009 0.33757088 0.15018958 0.021763979 0.947436 0.65605384 -0.29028618 -0.100276545
-0.20075263 0.13621987 -0.15181479 -0.07220473 -1.1658564 -0.8361844 -0.35156706 -0.13183771
-0.21495444 0.08556123 -0.004339802 -0.17957938 0.6306236 -0.4053372 -0.17770848 -0.12870839
0.13133506 -0.4923159 -0.6170723 -0.44946763 -0.9799067 -0.32576427 -1.2383409 -0.6200936
-0.67995507 0.465304 0.8334795 -0.14065717 -0.36416444 -0.24428888 -0.43679342 0.40869978
-0.6575287 -0.74709785 -0.6291256 -0.8213096 0.35864 -0.45291376 -0.6881789 0.0151814185
00000000: 7706 83be b829 3c3d 1407 483f 0a8c 243e
00000010: b94e 4a3f b6ea d3be a5ce 703e f112 a53e
00000020: 9f10 293f c211 2abf c7c8 023e a3ed 2b3f
00000030: 55d7 163f f46e e93e 4afd 6bbe 6f92 de3e
00000040: 0df7 f2bd 58bc ab3d 0d2f 223f 8955 2b3c
00000050: 3a57 30bd 54ee f93d 0a08 553d 9205 73be
00000060: 2753 a8be f21f 07be 7b7e 03bf 2e75 dc3e
00000070: 97cf d73e c235 c53e 1260 e6bc 830f a03e
00000080: 945c 73bf 5f7c 1e3e 6cbd 0e3d b7b4 a33e
00000090: 063f f63e c742 5c3f 9083 d0be bff1 92be
000000a0: 8ab7 81bd 0cd0 023f 1049 c0be 2b3e cf3e
000000b0: 58a5 d1be a8d0 933e ba7f 7e3f 6694 2f3e
000000c0: 93e0 b7be 90d7 d9be cc5c 2cbe a9b8 97be
000000d0: bf77 23be ec13 7a3e 6297 f7be 80e5 3a3f
000000e0: d8ff 923e 57ab 3ebe 06bc 293f f339 35be
000000f0: 8dbd f73d 9ec5 d63d 0df9 523e 93f3 f1bd
00000100: ce8d 0f3f 4066 e13e 410d 883e 989d c5be
00000110: 4499 4b3e 2e27 933e 070a 32bf 2c0a 92bb
00000120: 53b8 19be d6c9 0a3e e48f 09bf 7b4c f63e
00000130: f420 d2be bf17 95be 79f9 603f 5d0a fcbe
00000140: 5253 963e 43a7 60be 0f0c 0fbe 2649 4b3d
00000150: f156 cb3e b03c 5dbe c1d7 bf3d aaf5 40be
00000160: 23d8 8ebe e2ac e6be 9608 4a3f b854 3cbd
00000170: 0c37 753f 32d7 eabe 9b11 143f ad13 5ebf
00000180: 58da 173f 5fa6 27bf 5639 043f d3ee 06bf
00000190: 2ec5 603d 0c74 48bd 89ab b23e 324a afbe
000001a0: 9c1d 69be 7e02 243f d085 e4bd 3d10 fc3d
000001b0: 8424 32be 9e10 3bbd 4af7 54be c1bc dc3e
000001c0: 041b 873e 9e54 d5be 92b3 8a3e 3e5c 1fbe
000001d0: 6b06 533f ba65 16be b230 493e ccf6 f83e
000001e0: ee69 95bd 5dfe 25be bd1c 113e d1c7 94be
000001f0: fdeb 90be c74b 01bf 74e4 4f3e 60a3 19bd
00000200: 4b69 063f f5b8 91be 6523 383f b468 b6be
00000210: cc01 853d 57b4 dc3e b4db c13e b51b 04bf
00000220: a10b c3be 625c 99be 7297 f8be 2fc1 a13e
00000230: 985a a63e c9de 743e 635e c03d 9adb 813e
00000240: 4943 2dbf 0e7c adbe 0dd7 03bf d34e b7bd
00000250: ecbe 463e ecf8 b2be 1c29 f93c cc5a cc3e
00000260: 14b6 f43d 0ad9 b1bd cafc cd3e f347 95bf
00000270: fc6e 8f3e 6d28 9bbe 7c3a 393f e8a2 cebd
00000280: c1b3 263f e9d6 553e 0faa d83e 2074 7c3f
00000290: 525c 2cbe 7933 643e ddfb 59be cacd 7ebb
000002a0: f81a 32bf 6d19 33bf daa8 5c3e 9525 fabd
000002b0: 92d8 7c3e d304 443f f02b 4cbf b7b8 0d3f
000002c0: 9766 c3be 8a0d febd de91 c23e 570e 22bf
000002d0: 1ba5 d83d 0f15 a9be 743e 83bf 9492 5ebd
000002e0: 29a5 993d 6f4c 443f c2cd 4abd 77b5 8fbd
000002f0: 5920 4b3e 1be2 4ebf 3fc4 a03d 5ac5 2ebf
00000300: 87a4 2bbe f636 cb3d 7135 6a3d e3ca 703e
00000310: 095b b63e af68 4f3f 0bf8 ce3e d98f e1be
00000320: 83b2 ad3e d91d b13e 0a16 823e 2f8b 24be
00000330: e1ed cc3e 0b92 33bf 0a0c 5f3f 19e5 ae3e
00000340: 917f 4a3f 17d6 ac3e 4ccb 193e 5f4a b23c
00000350: 2a8b 723f 25f3 273f 64a0 94be ca5d cdbd
00000360: 1992 4dbe 397d 0b3e 5675 1bbe 13e0 93bd
00000370: c83a 95bf 2e10 56bf 9900 b4be 7700 07be
00000380: 041d 5cbe ba3a af3d e634 8ebb a8e3 37be
00000390: 8c70 213f 5c88 cfbe 36f9 35be 22cc 03be
000003a0: b37c 063e d410 fcbe 73f8 1dbf 9f20 e6be
000003b0: 2adb 7abf 93ca a6be f481 9ebf 74be 1ebf
000003c0: 8911 2ebf 533c ee3e ea5e 553f 6f08 10be
000003d0: c373 babe dd26 7abe 63a3 dfbe 1941 d13e
000003e0: cd53 28bf ce41 3fbf 600e 21bf 5941 52bf
000003f0: a99f b73e 50e4 e7be 7e2c 30bf 7cbb 783c

rel_embeddings.weight f4 [14, 200]
0.6079208 -0.35882092 -0.58131605 -0.7411726 0.6084981 -0.36502823 -0.3480869 0.73890907
0.34500933 0.3064273 0.68918777 -0.77854264 0.41614863 -0.45611817 -0.48862797 1.0840516
-0.28036535 -0.64134556 0.56262034 -0.21213698 -0.56815106 0.59589905 1.1635954 0.44984058
-0.3756241 -0.2648907 0.38090083 1.0568213 0.74625295 -0.8849306 -0.38833532 0.68308985
0.22306855 -1.2525442 -0.7213549 0.3476476 -0.47097376 -0.9986275 0.3618969 -1.0939364
0.47713584 -0.41090223 0.8451993 -0.4040922 -0.593535 0.79353285 0.8632615 -0.49235585
-0.44716856 -0.4666896 -0.38547233 -0.68130636 0.7502086 -0.7403854 1.0198638 0.60414845
-0.7125504 -0.4484432 0.47407907 0.8310363 0.79906046 -0.5982534 -0.61949134 -0.27918768
-0.41497976 -0.74517345 -0.29581577 -0.8113942 -0.20160286 0.9718968 0.671128 -0.6137366
0.6073457 -0.37837768 0.7507619 0.95366323 -0.5898729 0.6825619 0.85835475 -0.19691753
0.7964542 -0.62636936 -0.5225535 -0.35040236 -0.42138928 -0.35059687 0.48121777 -0.63225
-0.57456064 -0.37189832 0.5739456 -0.38548857 -0.609499 0.87975025 -0.3154072 -0.38794646
0.5204688 0.52406055 -0.28733996 0.56212026 -0.438795 0.6178314 -1.2408932 -0.47642013
0.3786875 -0.47991127 1.0409454 -0.3625062 0.5656822 -0.39104393 0.33530238 -0.52569765
-0.29901615 0.24264593 0.53080493 -0.41642666 0.52920914 -0.44217035 -0.8001518 -0.6541268
0.6733208 -0.67153764 0.46564555 -0.46068898 0.46654996 0.36269575 -0.6432722 -0.87461644
-0.6311875 -0.6598177 0.786125 0.7004124 -0.4557418 0.31679878 -0.44457185 0.5167006
-0.3121822 0.6972794 -0.4703728 -1.0427343 0.41000775 0.038018428 -0.12044984 -0.39818415
1.0161083 0.28367808 -0.70918536 -0.9039558 0.46900383 0.34381187 0.75311315 0.5598466
-0.5479013 0.7916038 -0.76272905 -0.46370828 0.6069693 -0.9298524 -0.22846583 0.3667152
0.5005634 0.372284 -0.37153417 -0.96720654 0.48480117 0.6172865 0.32305294 0.22285734
-0.6833486 0.70521545 -0.7632752 0.41189578 0.61162335 -0.13415532 -0.83088386 0.9626928
-0.57635784 0.60363203 -0.21203768 0.6720265 -0.69581383 -0.3673262 0.19380334 -0.5082965
0.7920576 -0.4208232 0.9437216 0.50701797 0.6791578 -0.68825924 0.58088064 0.25142014
0.6973358 -0.36733088 0.62033516 0.20688778 0.5312519 -0.8280066 -0.65971655 -0.5028043
0.22410284 -0.3832406 -0.35746288 0.32727656 -0.040223006 -0.2341077 0.42521396 0.12908
-0.45805576 -0.35255194 0.5295082 -0.23779199 -0.479975 -0.50204784 -0.39763963 0.319589
-0.1311873 -0.056970123 -0.1746813 0.22950314 -0.110261455 -0.6980465 0.22331537 0.25578445
0.8727841 -0.8983585 0.05825822 0.053329255 -0.3627965 -0.7163626 0.04200486 0.24581756
-0.3640051 0.025313077 -0.7824154 -0.78597045 0.19825059 0.11034577 -0.59400797 -0.17927648
0.025991688 -0.7441444 0.20336908 0.24450335 0.085419156 -0.12244657 0.9502664 -0.5989011
0.14930624 0.1902432 -0.8509761 0.7046805 0.27653566 0.20725319 0.08596875 0.27579367
00000000: b3a0 1b3f 60b7 b7be 21d1 14bf 7dbd 3dbf
00000010: 88c6 1b3f fbe4 babe 7238 b2be 2529 3d3f
00000020: 10a5 b03e 0ae4 9c3e 9c6e 303f 924e 47bf
00000030: 6f11 d53e 5288 e9be 722d fabe 34c2 8a3f
00000040: 0c8c 8fbe 392f 24bf e307 103f 703a 59be
00000050: 5972 11bf d78c 183f b2f0 943f 8151 e63e
00000060: cd51 c0be c19f 87be 6f05 c33e ec45 873f
00000070: 6f0a 3f3f d08a 62bf e3d3 c6be fade 2e3f
00000080: 156c 643e 5e53 a0bf b7aa 38bf defe b13e
00000090: 7923 f1be 0da6 7fbf 8d4a b93e 1c06 8cbf
000000a0: 264b f43e c761 d2be fb5e 583f 2ce5 cebe
000000b0: e9f1 17bf f824 4b3f b5fe 5c3f 1116 fcbe
000000c0: 47f3 e4be f0f1 eebe a15c c5be 186a 2ebf
000000d0: ac0d 403f e689 3dbf e68a 823f 79a9 1a3f
000000e0: b469 36bf 599a e5be 7eba f23e ccbe 543f
000000f0: 3a8f 4c3f 2327 19bf fc96 1ebf b0f1 8ebe
00000100: 3a78 d4be b0c3 3ebf 2a75 97be 88b7 4fbf
00000110: fb70 4ebe 3bce 783f 0bcf 2b3f d81d 1dbf
00000120: 027b 1b3f b8ba c1be ef31 403f 4623 743f
00000130: e901 17bf 60bc 2e3f 23bd 5b3f c0a4 49be
00000140: 6ce4 4b3f be59 20bf 11c6 05bf f067 b3be
00000150: 56c0 d7be 6f81 b3be 2d62 f63e 23db 21bf
00000160: 6816 13bf 7569 bebe 19ee 123f c25e c5be
00000170: 2008 1cbf 5037 613f 0d7d a1be eba0 c6be
00000180: 713d 053f d528 063f 391e 93be 1de7 0f3f
00000190: bda9 e0be 332a 1e3f 97d5 9ebf 57ed f3be
000001a0: 54e3 c13e eeb6 f5be b33d 853f 6a9a b9be
000001b0: 8cd0 103f e936 c8be c1ac ab3e 1f94 06bf
000001c0: a518 99be 2d78 783e d5e2 073f e035 d5be
000001d0: 407a 073f 2764 e2be c0d6 4cbf db74 27bf
000001e0: c05e 2c3f e4e9 2bbf 1869 ee3e 6ddf ebbe
000001f0: a3df ee3e 42b3 b93e 7dad 24bf dde6 5fbf
00000200: 8195 21bf d0e9 28bf 7d3f 493f 3a4e 333f
00000210: fd56 e9be 7333 a23e ec9e e3be 7e46 043f
00000220: 58d6 9fbe e780 323f b4d4 f0be 5178 85bf
00000230: 89ec d13e 36b9 1b3d 68ae f6bd cbde cbbe
00000240: d60f 823f 413e 913e 2c8d 35bf a669 67bf
00000250: 4521 f03e 1c08 b03e 06cc 403f 1b52 0f3f
00000260: 4243 0cbf 8ca6 4a3f 3642 43bf 2c6b edbe
00000270: 5762 1b3f cf0a 6ebf f2f2 69be 18c2 bb3e
00000280: ec24 003f 029c be3e ba39 bebe d99a 77bf
00000290: dc37 f83e 7d06 1e3f 3267 a53e b734 643e
000002a0: efef 2ebf 0089 343f 0166 43bf 01e4 d23e
000002b0: 5993 1c3f 0360 09be ceb4 54bf 0973 763f
000002c0: 308c 13bf a187 1a3f 6820 59be ee09 2c3f
000002d0: db20 32bf 2e12 bcbe 6274 463e b81f 02bf
000002e0: 49c4 4a3f 2376 d7be bd97 713f eecb 013f
000002f0: 49dd 2d3f c231 30bf 98b4 143f 24ba 803e
00000300: 9984 323f cb12 bcbe 49ce 1e3f 64da 533e
00000310: 2000 083f 3ef8 53bf 2fe3 28bf c8b7 00bf
00000320: 377b 653e 1d38 c4be 6005 b7be cb90 a73e
00000330: e1c0 24bd eeb9 6fbe a5b5 d93e 8c2d 043e
00000340: 4986 eabe b081 b4be d98d 073f be7f 73be
00000350: 48bf f5be 3586 00bf 6c97 cbbe 2ba1 a33e
00000360: f755 06be 8159 69bd a8df 32be df02 6b3e
00000370: c2d0 e1bd 2db3 32bf c9ac 643e 2ef6 823e
00000380: c76e 5f3f d3fa 65bf 2ca0 6e3d c76f 5a3d
00000390: 76c0 b9be 8a63 37bf 4a0d 2c3d 99b7 7b3e
000003a0: e05e babe 5f5d cf3c 604c 48bf 5c35 49bf
000003b0: 3402 4b3e f7fc e13d e810 18bf 4194 37be
000003c0: 85ec d43c 3f80 3ebf fc3f 503e 165f 7a3e
000003d0: 3df0 ae3d 44c5 fabd a944 733f 9551 19bf
000003e0: bce3 183e 1dcf 423e 92d9 59bf f165 343f
000003f0: 1596 8d3e 2e3a 543e 6210 b03d d434 8d3e
