checkpoint/TransE-999.ckpt (torch, 21287 bytes, 2 tensors)

ent_embeddings.weight f4 [87, 50]
0.09144057 -0.105568014 0.0051888656 -0.0117627485 0.13187468 0.10410908 0.22559227 0.041606504
-0.14263965 0.11549455 -0.0925019 0.042017583 -0.08121786 -0.06428883 0.2242275 0.11702457
-0.01582101 -0.016256224 -0.11411952 0.09562247 0.023556933 -0.15099841 -0.1031743 0.09697692
0.0698918 -0.15539175 0.060977213 0.05796445 -0.1382272 0.15068606 0.17096686 0.11702552
-0.15729696 -0.061554696 -0.10022914 0.08726003 0.017493729 -0.19185153 0.066677295 0.04834419
0.021889057 0.10195073 0.02368043 -0.054290686 -0.16498713 -0.193329 -0.055467844 -0.025789909
0.17102738 -0.06851393 0.08054946 0.11161574 0.30823508 0.05588982 -0.09740244 0.02667511
-0.11496479 -0.13585529 -0.081646316 0.12843755 -0.013920035 -0.03207871 0.13048005 0.07112224
-0.005608011 0.084301636 -0.15718262 -0.029147448 0.09542927 0.04362357 0.19835979 0.17705487
-0.025725968 0.13001987 0.030247912 -0.17158578 -0.122662 0.11644677 -0.0004049749 -0.39222118
-0.030853426 -0.054295104 -0.12553696 0.11791786 0.06645205 0.22055095 -0.058924064 0.30849984
-0.09525961 -0.015757946 -0.10575367 0.12268091 -0.12577504 -0.15895945 -0.019464819 0.09045842
0.013391137 0.059207685 0.124541774 -0.0988455 -0.11443068 0.20348623 0.026827388 0.14109962
-0.10795728 0.16027491 0.182729 0.16250394 0.15713647 0.093198 -0.0005611519 -0.16972269
-0.20173918 0.08743839 -0.027986221 0.09513709 -0.14447579 -0.117481805 -0.13305594 0.20713337
-0.19070567 0.1394391 -0.16962646 0.15396293 -0.17831908 0.14592265 0.13157889 -0.17579567
-0.052407842 0.10260296 -0.05462609 0.09448161 0.12258907 -0.055288494 -0.22497633 0.15775576
-0.04320287 0.1489995 -0.03304921 0.18358304 -0.2002043 -0.00036606914 0.15017995 -0.06696608
0.058986284 -0.05457174 -0.16188535 -0.19416887 0.17436552 0.10599615 0.08919971 -0.18883987
0.086319596 0.28458837 0.16619572 -0.10456609 0.03709618 -0.14206447 0.07790467 0.15822406
-0.075853884 0.27208087 -0.22544849 0.14953111 0.23872435 -0.18903556 -0.1640951 -0.042822536
0.19659749 -0.15009828 0.050415285 0.03137348 0.1219295 -0.04141289 0.027415425 -0.024315642
-0.22372867 -0.13485697 -0.23962727 0.19301276 0.16476317 -0.057288595 0.1300081 0.02182013
-0.08826569 0.05633032 0.17695227 -0.05632992 -0.06146834 -0.156512 -0.007263559 0.08040332
0.18412487 -0.076484606 -0.16828841 -0.123171 -0.15148476 -0.0340072 -0.02370493 -0.1556243
-0.006331574 0.22959164 -0.12601385 -0.10012481 -0.054795925 -0.026829656 0.01387297 -0.082596235
0.043071754 0.02888698 0.037248608 -0.21351764 -0.15844087 0.03470075 -0.018704858 0.013340771
-0.0961118 0.24963018 0.047452915 0.061534304 -0.06423244 0.13055551 0.17176214 0.18121861
0.0090260375 -0.1376374 0.009859785 -0.0036580386 0.014130971 -0.09588815 0.0059338324 -0.038684573
-0.008194258 0.13257861 0.10898257 -0.08252323 0.061891314 -0.06582732 -0.084725484 -0.030814117
-0.06485423 0.036313727 0.09697596 0.25399953 -0.15854946 -0.12479399 -0.082964286 0.05725846
-0.1544817 -0.10221311 -0.19963974 -0.20436475 0.19867921 -0.15938872 -0.053999845 -0.19685335
00000000: 3245 bb3d 0b34 d8bd 5c07 aa3b 8bb8 40bc
00000010: 280a 073e 2437 d53d a901 673e 956b 2a3d
00000020: 2110 12be 6888 ec3d a371 bdbd a11a 2c3d
00000030: 8d55 a6bd dda9 83bd e59b 653e 94aa ef3d
00000040: 109b 81bc c62b 85bc 7fb7 e9bd b7d5 c33d
00000050: 78fa c03c 549f 1abe 0c4d d3bd d69b c63d
00000060: 6f23 8f3d 041f 1fbe 3ec3 793d 226c 6d3d
00000070: 6e8b 0dbe 724d 1a3e f011 2f3e 13ab ef3d
00000080: 7412 21be c720 7cbd ef44 cdbd 63b5 b23d
00000090: 024f 8f3c ba74 44be 1b8e 883d 8f04 463d
000000a0: ae50 b33c 8bcb d03d 76fd c13c e95f 5ebd
000000b0: 63f2 28be 0af8 45be 4032 63bd 5c45 d3bc
000000c0: cd21 2f3e 0851 8cbd 1ef7 a43d cb96 e43d
000000d0: fdd0 9d3e b9ec 643d ee7a c7bd c385 da3c
000000e0: a972 ebbd a61d 0bbe 2f36 a7bd 2285 033e
000000f0: dc10 64bc f764 03bd 909c 053e 89a8 913d
00000100: 68c3 b7bb 56a6 ac3d 7bf4 20be a1c6 eebc
00000110: 6c70 c33d a1ae 323d d41e 4b3e df4d 353e
00000120: 44bf d2bc ee23 053e 78ca f73c 2fb4 2fbe
00000130: 3736 fbbd a57b ee3d d052 d4b9 37d1 c8be
00000140: 53c0 fcbc 8b64 5ebd c38c 00be eb7e f13d
00000150: 0318 883d 1cd8 613e 5c5a 71bd b1f3 9d3e
00000160: 7817 c3bd cf16 81bc 6195 d8bd 2140 fb3d
00000170: 2ccb 00be 44c6 22be af74 9fbc 4442 b93d
00000180: 8066 5b3c c283 723d c20f ff3d 826f cabd
00000190: a25a eabd b25e 503e 1cc5 db3c 6b7c 103e
000001a0: b518 ddbd 1b1f 243e 501d 3b3e 6f67 263e
000001b0: 62e8 203e 98de be3d 441a 13ba c9cb 2dbe
000001c0: b794 4ebe e612 b33d 5c43 e5bc 3cd7 c23d
000001d0: 76f1 13be 4d9a f0bd d13f 08be c51a 543e
000001e0: 5948 43be 20c9 0e3e 8fb2 2dbe 75a8 1d3e
000001f0: 4799 36be bf6c 153e 9ebc 063e c803 34be
00000200: 9ba9 56bd 8021 d23d 9bbf 5fbd 937f c13d
00000210: fa0f fb3d 3076 62bd 3260 66be ba8a 213e
00000220: 7ef5 30bd 5393 183e 9c5e 07bd 31fd 3b3e
00000230: 5b02 4dbe f8ec bfb9 c6c8 193e 8325 89bd
00000240: 9a9b 713d 9e86 5fbd 46c5 25be 34d4 46be
00000250: e08c 323e 8214 d93d 56ae b63d 3d5f 41be
00000260: 54c8 b03d 91b5 913e 362f 2a3e bf26 d6bd
00000270: 2af2 173d 5979 11be 7c8c 9f3d 7d05 223e
00000280: 4859 9bbd 2f4e 8b3e f8db 66be af1e 193e
00000290: 2874 743e 8a92 41be 8c08 28be af66 2fbd
000002a0: da50 493e 5db3 19be 4280 4e3d 7a81 003d
000002b0: 2cb6 f93d 90a0 29bd 5096 e03c 9931 c7bc
000002c0: 2119 65be f217 0abe da60 75be 23a5 453e
000002d0: adb7 283e 72a7 6abd d820 053e 21c0 b23c
000002e0: a4c4 b4bd 9fba 663d fa32 353e 34ba 66bd
000002f0: 3ac6 7bbd af44 20be 2603 eebb 7faa a43d
00000300: 3b8b 3c3e f6a3 9cbd cc53 2cbe 1441 fcbd
00000310: d21e 1bbe 224b 0bbd d730 c2bc fa5b 1fbe
00000320: 1879 cfbb 121a 6b3e c609 01be 3d0e cdbd
00000330: b171 60bd dec9 dbbc 744b 633c 3728 a9bd
00000340: 026c 303d 63a4 ec3c ff91 183d 5ea4 5abe
00000350: 533e 22be 6022 0e3d ee3a 99bc 4093 5a3c
00000360: 43d6 c4bd 0e9f 7f3e fd5d 423d 650b 7c3d
00000370: 4c8c 83bd 58b0 053e 6ae2 2f3e 5f91 393e
00000380: f2e1 133c d2f0 0cbe f08a 213c b4bb 6fbb
00000390: 9785 673c 0261 c4bd 9870 c23b b773 1ebd
000003a0: 3641 06bc b0c2 073e 4132 df3d f001 a9bd
000003b0: bf81 7d3d 79d0 86bd 8e84 adbd e36d fcbc
000003c0: 4bd2 84bd b4bd 143d 559b c63d 3a0c 823e
000003d0: ca5a 22be fe93 ffbd 2ee9 a9bd d987 6a3d
000003e0: 7330 1ebe 1b55 d1bd 5c6e 4cbe fe44 51be
000003f0: 9072 4b3e cc36 23be f12e 5dbd ed93 49be

rel_embeddings.weight f4 [14, 50]
0.01705203 -0.17483163 -0.15812527 -0.16132519 0.13389067 0.25409806 0.21992259 0.15534893
0.032024145 0.04323203 0.0036758122 0.1680033 0.30075613 -0.22629346 -0.17225675 -0.2610478
0.29038155 -0.23952477 0.3052228 0.14814076 -0.010184992 0.31195006 -0.12260193 -0.19916765
-0.22818042 0.118908465 -0.25859424 0.065450326 -0.1914803 -0.25259265 -0.18319076 -0.21967502
-0.15697816 -0.101074465 0.20381378 0.14523266 0.22643048 0.14204626 -0.15446717 -0.113853104
0.00012527895 0.05673504 -0.2235789 -0.29482666 -0.14331888 0.118104674 0.07353784 -0.28227353
-0.19092274 0.28950676 -0.13916528 -0.26337162 0.09389162 0.10549153 0.051417835 0.12183747
0.17347316 -0.15926255 -0.10616183 -0.13624573 0.26198962 -0.15247563 0.10710988 0.19497395
-0.22383346 -0.21262798 0.28441173 -0.05078479 -0.06795743 0.07529425 -0.22890776 0.2409819
-0.18537013 -0.14730312 0.14950867 0.1916428 0.22012867 0.071716785 -0.16398077 -0.17364259
-0.29123443 -0.12296058 -0.19687267 -0.022004737 -0.1422638 -0.28174272 -0.12470133 0.106844656
-0.03909169 -0.042722043 -0.15261966 -0.21502373 0.063356556 0.021183956 0.20749182 0.11868007
0.09880428 -0.121958405 0.0625441 -0.15570645 0.14180121 -0.15153073 -0.26715076 0.2654402
0.14365332 0.13476643 0.27614322 0.15071863 -0.077897176 0.059845358 0.11927817 0.15743281
0.032747503 0.14983952 -0.040425338 -0.012965615 0.29284656 0.10473258 0.20050275 0.086921945
0.14095645 0.08032219 0.12845695 -0.025305891 0.10654283 0.2580338 0.2614023 0.03012614
0.04369816 -0.24804516 0.10469954 -0.02456415 0.097959645 0.29520696 -0.053873047 0.15686668
-0.10362783 -0.30077204 0.29270217 0.1513626 0.28354436 -0.25242487 0.29115966 -0.039655045
0.22415 0.14728121 0.12508976 -0.26887292 0.1364613 -0.268598 -0.24017145 0.007901439
-0.031104352 0.040858503 0.26521304 0.16269667 0.15620665 0.28245655 0.131812 -0.1540359
0.2154431 -0.067664266 0.09486531 -0.22086017 -0.080669895 0.14921571 -0.15788817 -0.13505745
0.20892121 -0.08458912 0.259212 0.10711218 -0.044362202 -0.042004485 -0.056484215 -0.28016928
-0.24072877 0.10345407 -0.076799236 0.24986571 0.11945058 -0.19230948 -0.10140355 -0.053599708
-0.124070644 -0.14925773 0.045248784 0.25736976 -0.050413564 -0.2506283 0.19734652 -0.2535371
-0.06281396 -0.29333866 0.09959424 0.29848447 0.11267365 0.056587517 -0.10198535 -0.27130544
0.216968 0.057397544 0.24180177 0.10444893 0.25745142 -0.25933158 -0.038596272 0.113107465
0.32526585 0.20457107 0.25679502 0.28304592 0.22544287 0.32823566 0.16367719 -0.105576694
0.104162 -0.090469405 0.16138901 0.113906056 0.10755474 -0.037582334 0.039409228 -0.23824613
-0.34662622 -0.25665063 -0.080351636 -0.109502144 -0.24688129 0.16328996 0.2518838 0.25323862
-0.07556583 0.12443388 -0.228174 -0.16477706 0.075620875 -0.09422143 -0.111527935 0.24864078
0.11246388 -0.03337608 0.046351455 0.07465933 0.19578637 0.2660417 0.13062742 0.100264914
-0.052772615 -0.056259975 -0.22509265 -0.22305083 0.07984541 -0.0048006945 -0.051063146 -0.076900065
00000000: b3b0 8b3c 1007 33be 97eb 21be 6e32 25be
00000010: a31a 093e 2419 823e 6333 613e ca13 1f3e
00000020: c02b 033d 1214 313d e5e5 703b 0f09 2c3e
00000030: b5fc 993e 79b9 67be 1364 30be 0fa8 85be
00000040: e4ac 943e fb45 75be 2a46 9c3e 36b2 173e
00000050: f4de 26bc ebb7 9f3e b816 fbbd 9bf2 4bbe
00000060: 21a8 69be 4886 f33d 7766 84be d20a 863d
00000070: 6913 44be d353 81be 5c96 3bbe 7df2 60be
00000080: e2be 20be 2100 cfbd 8fb4 503e dfb7 143e
00000090: 64dd 673e 9374 113e a42c 1ebe d12b e9bd
000000a0: 505d 0339 0063 683d def1 64be 85f3 96be
000000b0: 2fc2 12be dde0 f13d 029b 963d 2886 90be
000000c0: 4081 43be 3b3a 943e 5881 0ebe a5d8 86be
000000d0: 404a c03d f10b d83d 829b 523d ec85 f93d
000000e0: f3a2 313e b915 23be 606b d9bd 0084 0bbe
000000f0: 8123 863e 9222 1cbe 6d5c db3d 40a7 473e
00000100: 9934 65be 26bb 59be 6a9e 913e b603 50bd
00000110: 442d 8bbd df33 9a3d cc66 6abe f6c3 763e
00000120: abd1 3dbe a1d6 16be cd18 193e 033e 443e
00000130: 6969 613e 40e0 923d 93ea 27be 5dcf 31be
00000140: ae1c 95be c2d2 fbbd fd98 49be 4743 b4bc
00000150: 9aad 11be 9540 90be 6963 ffbd 5fd1 da3d
00000160: 9c1e 20bd 4ffd 2ebd 5448 1cbe 2e2f 5cbe
00000170: 15c1 813d fa89 ad3c bc78 543e 890e f33d
00000180: e659 ca3d 54c5 f9bd 1f17 803d 8371 1fbe
00000190: 5634 113e df2a 1bbe fcc7 88be c7e7 873e
000001a0: db19 133e 3600 0a3e a562 8d3e fc55 1a3e
000001b0: 8e88 9fbd 6820 753d 1d48 f43d 1136 213e
000001c0: 3f22 063d 886f 193e 0a95 25bd bb6d 54bc
000001d0: fcef 953e 097e d63d 9850 4d3e 2204 b23d
000001e0: e356 103e f67f a43d 388a 033e 4d4e cfbc
000001f0: 2133 da3d 021d 843e 86d6 853e 18cb f63c
00000200: d8fc 323d 8dff 7dbe b66c d63d c23a c9bc
00000210: 119f c83d 5e25 973e fca9 5cbd a9a1 203e
00000220: d43a d4bd cbfe 99be 0fdd 953e ccfe 1a3e
00000230: ba2c 913e d53d 81be e112 953e 546d 22bd
00000240: 9487 653e e3d0 163e 8817 003e b6a9 89be
00000250: 83bc 0b3e ad85 89be 81ef 75be 0a75 013c
00000260: 8ece febc 3f5b 273d 01ca 873e f599 263e
00000270: a3f4 1f3e 259e 903e baf9 063e 96bb 1dbe
00000280: 1e9d 5c3e 9093 8abd be48 c23d 2b29 62be
00000290: 4236 a5bd 01cc 183e 70ad 21be 804c 0abe
000002a0: 71ef 553e 0f3d adbd 6fb7 843e a15d db3d
000002b0: 24b5 35bd e50c 2cbd fe5b 67bd 5972 8fbe
000002c0: 9a81 76be badf d33d eb48 9dbd ccdc 7f3e
000002d0: 81a2 f43d c7ec 44be aaac cfbd 5e8b 5bbd
000002e0: c018 febd 05d7 18be ca56 393d f8c5 833e
000002f0: 747e 4ebd 5a52 80be 3515 4a3e 9dcf 81be
00000300: 9ba4 80bd 7c30 96be 11f8 cb3d f5d2 983e
00000310: 71c1 e63d 50c8 673d b2dd d0bd 8ce8 8abe
00000320: dc2c 5e3e b019 6b3d e29a 773e 52e9 d53d
00000330: acd0 833e 1cc7 84be 2017 1ebd e3a4 e73d
00000340: 3f89 a63e 147b 513e a37a 833e 65eb 903e
00000350: 7fda 663e 810e a83e fe9a 273e 9838 d8bd
00000360: e352 d53d 0648 b9bd 2943 253e 9447 e93d
00000370: a945 dc3d efef 19bd 926b 213d cbf6 73be
00000380: fe78 b1be b667 83be 668f a4bd a942 e0bd
00000390: 73ce 7cbe 7c35 273e eaf6 803e 7ea8 813e
000003a0: 42c2 9abd 31d7 fe3d 72a6 69be 51bb 28be
000003b0: 1edf 9a3d 2af7 c0bd c268 e4bd b09b 7e3e
000003c0: 7653 e63d 5bb5 08bd 06db 3d3d fee6 983d
000003d0: 397c 483e 9e36 883e 32c3 053e b157 cd3d
000003e0: 1928 58bd dc70 66bd b07e 66be 7067 64be
000003f0: fe85 a33d 254f 9dbb 9727 51bd c87d 9dbd
