checkpoint/TransE-799.ckpt (torch, 21287 bytes, 2 tensors)

ent_embeddings.weight f4 [87, 50]
000000 32 45 bb 3d 0b 34 d8 bd 5c 07 aa 3b 8b b8 40 bc
       0.09144057 -0.105568014 0.0051888656 -0.0117627485
000010 28 0a 07 3e 24 37 d5 3d a9 01 67 3e 95 6b 2a 3d
       0.13187468 0.10410908 0.22559227 0.041606504
000020 21 10 12 be 68 88 ec 3d a3 71 bd bd a1 1a 2c 3d
       -0.14263965 0.11549455 -0.0925019 0.042017583
000030 8d 55 a6 bd dd a9 83 bd e5 9b 65 3e 94 aa ef 3d
       -0.08121786 -0.06428883 0.2242275 0.11702457
000040 10 9b 81 bc c6 2b 85 bc 7f b7 e9 bd b7 d5 c3 3d
       -0.01582101 -0.016256224 -0.11411952 0.09562247
000050 78 fa c0 3c 54 9f 1a be 0c 4d d3 bd d6 9b c6 3d
       0.023556933 -0.15099841 -0.1031743 0.09697692
000060 6f 23 8f 3d 04 1f 1f be 3e c3 79 3d 22 6c 6d 3d
       0.0698918 -0.15539175 0.060977213 0.05796445
000070 6e 8b 0d be 72 4d 1a 3e f0 11 2f 3e 13 ab ef 3d
       -0.1382272 0.15068606 0.17096686 0.11702552
000080 74 12 21 be c7 20 7c bd ef 44 cd bd 63 b5 b2 3d
       -0.15729696 -0.061554696 -0.10022914 0.08726003
000090 02 4f 8f 3c ba 74 44 be 1b 8e 88 3d 8f 04 46 3d
       0.017493729 -0.19185153 0.066677295 0.04834419
0000a0 ae 50 b3 3c 8b cb d0 3d 76 fd c1 3c e9 5f 5e bd
       0.021889057 0.10195073 0.02368043 -0.054290686
0000b0 63 f2 28 be 0a f8 45 be 40 32 63 bd 5c 45 d3 bc
       -0.16498713 -0.193329 -0.055467844 -0.025789909
0000c0 cd 21 2f 3e 08 51 8c bd 1e f7 a4 3d cb 96 e4 3d
       0.17102738 -0.06851393 0.08054946 0.11161574
0000d0 d8 ca 9c 3e b9 ec 64 3d ee 7a c7 bd c3 85 da 3c
       0.30623507 0.05588982 -0.09740244 0.02667511
0000e0 a9 72 eb bd a6 1d 0b be c2 4e ab bd 22 85 03 3e
       -0.11496479 -0.13585529 -0.08364631 0.12843755
0000f0 bc 6a 82 bc f7 64 03 bd 90 9c 05 3e 89 a8 91 3d
       -0.015920036 -0.03207871 0.13048005 0.07112224
000100 68 c3 b7 bb c3 8d a8 3d c5 00 23 be a1 c6 ee bc
       -0.005608011 0.08230164 -0.15918262 -0.029147448
000110 6c 70 c3 3d a1 ae 32 3d d4 1e 4b 3e df 4d 35 3e
       0.09542927 0.04362357 0.19835979 0.17705487
000120 92 21 e3 bc 38 30 07 3e 78 ca f7 3c 2f b4 2f be
       -0.027725969 0.13201988 0.030247912 -0.17158578
000130 37 36 fb bd a5 7b ee 3d c9 9c 1d bb 37 d1 c8 be
       -0.122662 0.11644677 -0.002404975 -0.39222118
000140 53 c0 fc bc 8b 64 5e bd c3 8c 00 be eb 7e f1 3d
       -0.030853426 -0.054295104 -0.12553696 0.11791786
000150 03 18 88 3d 1c d8 61 3e 5c 5a 71 bd b1 f3 9d 3e
       0.06645205 0.22055095 -0.058924064 0.30849984
000160 e5 fe be bd cf 16 81 bc f4 ad dc bd 21 40 fb 3d
       -0.09325961 -0.015757946 -0.107753664 0.12268091
000170 2c cb 00 be fa b9 20 be af 74 9f bc 44 42 b9 3d
       -0.12577504 -0.15695944 -0.019464819 0.09045842
000180 80 66 5b 3c c2 83 72 3d c2 0f ff 3d 82 6f ca bd
       0.013391137 0.059207685 0.124541774 -0.0988455
000190 a2 5a ea bd b2 5e 50 3e 1c c5 db 3c 6b 7c 10 3e
       -0.11443068 0.20348623 0.026827388 0.14109962
0001a0 b5 18 dd bd 1b 1f 24 3e 50 1d 3b 3e 6f 67 26 3e
       -0.10795728 0.16027491 0.182729 0.16250394
0001b0 62 e8 20 3e 98 de be 3d 44 1a 13 ba c9 cb 2d be
       0.15713647 0.093198 -0.0005611519 -0.16972269
0001c0 b7 94 4e be e6 12 b3 3d 5c 43 e5 bc 3c d7 c2 3d
       -0.20173918 0.08743839 -0.027986221 0.09513709
0001d0 76 f1 13 be 4d 9a f0 bd d1 3f 08 be c5 1a 54 3e
       -0.14447579 -0.117481805 -0.13305594 0.20713337
0001e0 59 48 43 be 20 c9 0e 3e 8f b2 2d be 75 a8 1d 3e
       -0.19070567 0.1394391 -0.16962646 0.15396293
0001f0 47 99 36 be bf 6c 15 3e 9e bc 06 3e c8 03 34 be
       -0.17831908 0.14592265 0.13157889 -0.17579567
000200 9b a9 56 bd 80 21 d2 3d 9b bf 5f bd 93 7f c1 3d
       -0.052407842 0.10260296 -0.05462609 0.09448161
000210 fa 0f fb 3d 30 76 62 bd 32 60 66 be ba 8a 21 3e
       0.12258907 -0.055288494 -0.22497633 0.15775576
000220 7e f5 30 bd 53 93 18 3e 9c 5e 07 bd 31 fd 3b 3e
       -0.04320287 0.1489995 -0.03304921 0.18358304
000230 5b 02 4d be f8 ec bf b9 c6 c8 19 3e 83 25 89 bd
       -0.2002043 -0.00036606914 0.15017995 -0.06696608
000240 9a 9b 71 3d 9e 86 5f bd 46 c5 25 be 34 d4 46 be
       0.058986284 -0.05457174 -0.16188535 -0.19416887
000250 e0 8c 32 3e 82 14 d9 3d a0 ba b8 3d 18 59 40 be
       0.17436552 0.10599615 0.09019971 -0.18783987
000260 9e d4 b2 3d 7f 32 91 3e c7 1c 27 3e 09 33 d8 bd
       0.0873196 0.28358838 0.16319571 -0.10556609
000270 be 0a 1c 3d 34 73 10 be c6 98 a1 3d 58 ff 20 3e
       0.038096182 -0.14106447 0.07890467 0.15722406
000280 fe 4c 99 bd f8 c4 89 3e d3 d5 65 be d4 24 1a 3e
       -0.07485388 0.26908088 -0.22444849 0.15053111
000290 03 6e 73 3e af 98 42 be 67 02 27 be 43 7f 33 bd
       0.23772435 -0.19003557 -0.1630951 -0.043822538
0002a0 ff 56 4a 3e 38 ad 18 be fc c9 5a 3d 34 cb 0c 3d
       0.19759749 -0.14909828 0.053415284 0.034373477
0002b0 e2 a9 f7 3d 23 b9 2d bd 29 65 d8 3c c0 62 cf bc
       0.120929495 -0.04241289 0.026415424 -0.025315642
0002c0 46 1f 66 be cd 11 09 be b5 5a 74 be fe 9e 44 3e
       -0.22472867 -0.13385697 -0.23862727 0.19201276
0002d0 1c ca 2b 3e df 8e 66 bd b3 1a 04 3e ac 2c 9a 3c
       0.16776317 -0.056288596 0.1290081 0.01882013
0002e0 5b b8 b2 bd 0c a2 62 3d 8b 20 32 3e a1 a1 62 bd
       -0.08726569 0.05533032 0.17395227 -0.055329923
0002f0 a7 ad 77 bd 8a 3e 1f be 8a 3e cd bb 35 9e a2 3d
       -0.060468342 -0.155512 -0.0062635588 0.07940332
000300 16 85 3b 3e ac 97 9a bd a7 4d 2b be ca 34 fa bd
       0.18312487 -0.0754846 -0.16728841 -0.122171
000310 ad 18 1a be b5 63 0f bd 4c c4 da bc 1f 62 20 be
       -0.15048476 -0.035007197 -0.02670493 -0.1566243
000320 88 56 5a bb 37 20 6c 3e af ee fb bd 1b 33 d3 bd
       -0.0033315737 0.23059164 -0.12301385 -0.10312482
000330 1c 59 5c bd 1b d4 b2 bc c2 ad 73 3c ec 1b a7 bd
       -0.05379592 -0.021829655 0.01487297 -0.081596226
000340 e1 e6 44 3d ee 10 d4 3c dd 0c 2d 3d 5b 79 53 be
       0.048071746 0.025886979 0.042248596 -0.20651762
000350 c2 50 25 be 18 6c 1a 3d c7 09 91 bc 56 6c 29 3c
       -0.16144088 0.037700742 -0.017704858 0.010340771
000360 65 b1 be bd 9f 8c 7c 3e 1d e3 2d 3d ab c1 6f 3d
       -0.09311179 0.24663018 0.04245292 0.058534306
000370 2a b1 89 bd 11 cf 0a 3e b1 c3 2a 3e 3a 8b 38 3e
       -0.067232445 0.13555552 0.16676213 0.1802186
000380 78 cd 65 3c 8b 0f 12 be 0c c8 e0 3b 34 80 2c ba
       0.014026038 -0.14263742 0.006859785 -0.0006580383
000390 11 9a 15 3c 08 b7 d2 bd 36 5f 12 3c 25 5b 1a bd
       0.009130971 -0.10288817 0.008933833 -0.03768458
0003a0 98 34 aa bb 41 b0 04 3e 63 0d d9 3d 3a 0e ab bd
       -0.005194258 0.1295786 0.105982564 -0.08352323
0003b0 bd e5 84 3d 10 26 79 bd 93 da bb bd ab 80 0a bd
       0.064891316 -0.060827315 -0.09172549 -0.033814114
0003c0 51 28 93 bd fb 73 08 3d 9e a7 c8 3d 28 89 81 3e
       -0.07185424 0.033313733 0.097975954 0.25299954
0003d0 a5 54 21 be 6e dc 02 be 0c 0e b0 bd b9 02 7f 3d
       -0.15754946 -0.127794 -0.08596429 0.062258456
0003e0 4e 2a 1d be 66 61 d3 bd 5c 6e 4c be fe 44 51 be
       -0.15348169 -0.10321312 -0.19963974 -0.20436475
0003f0 90 72 4b 3e cc 36 23 be f1 2e 5d bd ed 93 49 be
       0.19867921 -0.15938872 -0.053999845 -0.19685335

rel_embeddings.weight f4 [14, 50]
000000 cb 9c 76 3c 10 07 33 be 97 eb 21 be 6e 32 25 be
       0.015052031 -0.17483163 -0.15812527 -0.16132519
000010 59 0e 07 3e 24 19 82 3e 63 33 61 3e 14 20 21 3e
       0.13189067 0.25409806 0.21992259 0.15734893
000020 e7 5c 0b 3d 39 45 39 3d e5 e5 70 3b 0f 09 2c 3e
       0.034024145 0.04523203 0.0036758122 0.1680033
000030 b5 fc 99 3e 79 b9 67 be 5d 70 32 be 0f a8 85 be
       0.30075613 -0.22629346 -0.17425676 -0.2610478
000040 e4 ac 94 3e fb 45 75 be 2a 46 9c 3e 36 b2 17 3e
       0.29038155 -0.23952477 0.3052228 0.14814076
000050 2c 68 68 bc eb b7 9f 3e b8 16 fb bd e5 fe 4d be
       -0.014184993 0.31195006 -0.12260193 -0.20116766
000060 21 a8 69 be 48 86 f3 3d 77 66 84 be 65 23 8a 3d
       -0.22818042 0.118908465 -0.25859424 0.06745032
000070 69 13 44 be d3 53 81 be 5c 96 3b be 7d f2 60 be
       -0.1914803 -0.25259265 -0.18319076 -0.21967502
000080 e2 be 20 be 21 00 cf bd d9 c0 52 3e 29 c4 16 3e
       -0.15697816 -0.101074465 0.20581378 0.14723267
000090 ae e9 69 3e dd 80 13 3e 5a 20 1c be d1 2b e9 bd
       0.22843048 0.14404626 -0.15246716 -0.113853104
0000a0 34 b9 f5 ba 27 94 70 3d de f1 64 be 85 f3 96 be
       -0.0018747211 0.05873504 -0.2235789 -0.29482666
0000b0 2f c2 12 be b7 af e9 3d 6f 82 92 3d 28 86 90 be
       -0.14331888 0.11410468 0.071537845 -0.28227353
0000c0 8a 8d 45 be 3b 3a 94 3e a2 8d 10 be a5 d8 86 be
       -0.19292274 0.28950676 -0.14116529 -0.26337162
0000d0 d3 62 c4 3d f1 0b d8 3d 34 39 42 3d ec 85 f9 3d
       0.09589162 0.10549153 0.047417834 0.12183747
0000e0 f3 a2 31 3e b9 15 23 be 3a 3a d1 bd 00 84 0b be
       0.17347316 -0.15926255 -0.10216184 -0.13624573
0000f0 5c 1d 85 3e 48 16 1a be 47 2b d3 3d f6 9a 45 3e
       0.25998962 -0.15047562 0.10310989 0.19297394
000100 4f 28 63 be 26 bb 59 be 6a 9e 91 3e 8f d2 47 bd
       -0.22183345 -0.21262798 0.28441173 -0.04878479
000110 1e fc 82 bd 26 ea 8d 3d cc 66 6a be f6 c3 76 3e
       -0.06395744 0.06929426 -0.22890776 0.2409819
000120 ab d1 3d be a1 d6 16 be cd 18 19 3e 6f 25 40 3e
       -0.18537013 -0.14730312 0.14950867 0.1876428
000130 69 69 61 3e 40 e0 92 3d 93 ea 27 be 5d cf 31 be
       0.22012867 0.071716785 -0.16398077 -0.17364259
000140 ae 1c 95 be 55 eb ff bd fd 98 49 be 47 43 b4 bc
       -0.29123443 -0.12496058 -0.19687267 -0.022004737
000150 50 a1 0f be 95 40 90 be d6 4a fb bd 5f d1 da 3d
       -0.1402638 -0.28174272 -0.12270133 0.106844656
000160 9c 1e 20 bd 4f fd 2e bd 0a 3c 1a be 2e 2f 5c be
       -0.03909169 -0.042722043 -0.15061966 -0.21502373
000170 03 51 7b 3d ac 27 9d 3c bc 78 54 3e 89 0e f3 3d
       0.061356556 0.019183956 0.20749182 0.11868007
000180 c0 28 c2 3d 54 c5 f9 bd 17 fd 77 3d 83 71 1f be
       0.09480429 -0.121958405 0.0605441 -0.15570645
000190 0c 28 0f 3e 4b 12 17 be fc c7 88 be ec ed 88 3e
       0.1398012 -0.14753072 -0.26715076 0.2674402
0001a0 25 26 15 3e ca 18 0e 3e a5 62 8d 3e 46 62 1c 3e
       0.14565332 0.13876644 0.27614322 0.15271863
0001b0 8e 88 9f bd 68 20 75 3d 8a 2f f0 3d 11 36 21 3e
       -0.077897176 0.059845358 0.11727817 0.15743281
0001c0 66 53 0e 3d d2 7b 1b 3e 31 c6 2d bd bb 6d 54 bc
       0.034747504 0.15183952 -0.04242534 -0.012965615
0001d0 fc ef 95 3e 2f af de 3d 98 50 4d 3e 22 04 b2 3d
       0.29284656 0.10873257 0.20050275 0.086921945
0001e0 e3 56 10 3e 63 67 a0 3d 82 96 05 3e 9b b0 df bc
       0.14095645 0.078322195 0.13045695 -0.027305892
0001f0 21 33 da 3d 02 1d 84 3e 86 d6 85 3e b3 96 03 3d
       0.10654283 0.2580338 0.2614023 0.03212614
000200 d8 fc 32 3d f9 e6 79 be 49 85 da 3d c2 3a c9 bc
       0.04369816 -0.24404515 0.106699534 -0.02456415
000210 11 9f c8 3d 5e 25 97 3e ae 47 4c bd a9 a1 20 3e
       0.097959645 0.29520696 -0.049873047 0.15686668
000220 d4 3a d4 bd cb fe 99 be 0f dd 95 3e 16 0b 1d 3e
       -0.10362783 -0.30077204 0.29270217 0.1533626
000230 ba 2c 91 3e d5 3d 81 be e1 12 95 3e 06 0b 12 bd
       0.28354436 -0.25242487 0.29115966 -0.035655044
000240 94 87 65 3e e3 d0 16 3e 88 17 00 3e db af 8a be
       0.22415 0.14728121 0.12508976 -0.27087292
000250 cd c8 0d 3e ad 85 89 be 81 ef 75 be 0a 75 01 3c
       0.1384613 -0.268598 -0.24017145 0.007901439
000260 8e ce fe bc 3f 5b 27 3d 01 ca 87 3e f5 99 26 3e
       -0.031104352 0.040858503 0.26521304 0.16269667
000270 a3 f4 1f 3e 25 9e 90 3e ba f9 06 3e 96 bb 1d be
       0.15620665 0.28245655 0.131812 -0.1540359
000280 1e 9d 5c 3e 90 93 8a bd be 48 c2 3d 2b 29 62 be
       0.2154431 -0.067664266 0.09486531 -0.22086017
000290 42 36 a5 bd 01 cc 18 3e 70 ad 21 be 80 4c 0a be
       -0.080669895 0.14921571 -0.15788817 -0.13505745
0002a0 71 ef 55 3e 0f 3d ad bd 6f b7 84 3e a1 5d db 3d
       0.20892121 -0.08458912 0.259212 0.10711218
0002b0 24 b5 35 bd e5 0c 2c bd fe 5b 67 bd 59 72 8f be
       -0.044362202 -0.042004485 -0.056484215 -0.28016928
0002c0 9a 81 76 be ba df d3 3d eb 48 9d bd cc dc 7f 3e
       -0.24072877 0.10345407 -0.076799236 0.24986571
0002d0 81 a2 f4 3d c7 ec 44 be aa ac cf bd 5e 8b 5b bd
       0.11945058 -0.19230948 -0.10140355 -0.053599708
0002e0 c0 18 fe bd 05 d7 18 be ca 56 39 3d f8 c5 83 3e
       -0.124070644 -0.14925773 0.045248784 0.25736976
0002f0 74 7e 4e bd 5a 52 80 be 35 15 4a 3e 9d cf 81 be
       -0.050413564 -0.2506283 0.19734652 -0.2535371
000300 9b a4 80 bd 7c 30 96 be 11 f8 cb 3d f5 d2 98 3e
       -0.06281396 -0.29333866 0.09959424 0.29848447
000310 71 c1 e6 3d 50 c8 67 3d b2 dd d0 bd 8c e8 8a be
       0.11267365 0.056587517 -0.10198535 -0.27130544
000320 70 45 62 3e 3b 86 52 3d e2 9a 77 3e 52 e9 d5 3d
       0.22096801 0.051397543 0.24180177 0.10444893
000330 87 ca 82 3e 1c c7 84 be 09 a5 fa bc 76 bd eb 3d
       0.2554514 -0.25933158 -0.030596273 0.11510746
000340 3f 89 a6 3e 5e 87 53 3e 7e 74 82 3e 8a f1 91 3e
       0.32526585 0.20657107 0.254795 0.28504592
000350 7f da 66 3e 37 02 a6 3e 48 a7 29 3e 2b 51 dc bd
       0.22544287 0.32423565 0.16567719 -0.10757669
000360 2a 09 c9 3d 4d fe ac bd b7 05 1b 3e 48 e5 d8 3d
       0.09816201 -0.084469415 0.15138899 0.10590607
000370 11 81 bb 3d a1 8d 09 bd b9 9c 29 3d 37 de 6f be
       0.09155477 -0.033582333 0.041409228 -0.23424612
000380 d9 72 b0 be db 6d 84 be ad 45 98 bd 16 2a dc bd
       -0.34462622 -0.25865063 -0.074351646 -0.10750215
000390 df b5 78 be 32 29 25 3e 8a e1 7f 3e a3 ae 82 3e
       -0.24288128 0.16128996 0.2498838 0.25523862
0003a0 af a9 96 bd 30 d7 fe 3d de 8d 65 be 2f e0 2e be
       -0.07356583 0.124433875 -0.224174 -0.17077707
0003b0 f8 ad 92 3d bd 0f c5 bd 55 81 e8 bd b0 9b 7e 3e
       0.07162088 -0.096221425 -0.11352793 0.24864078
0003c0 50 22 de 3d 34 84 00 bd 54 3d 4e 3d 45 9d 8c 3d
       0.10846388 -0.03137608 0.050351456 0.06865934
0003d0 11 4b 40 3e 2f 24 85 3e 9e aa 01 3e b1 57 cd 3d
       0.18778636 0.26004168 0.12662742 0.100264914
0003e0 cb c5 47 bd 03 a2 6e bd b0 7e 66 be 70 67 64 be
       -0.048772614 -0.058259975 -0.22509265 -0.22305083
0003f0 fe 85 a3 3d 25 4f 9d bb 97 27 51 bd c8 7d 9d bd
       0.07984541 -0.0048006945 -0.051063146 -0.076900065
