checkpoint/TransE-599.ckpt (torch, 21287 bytes, 2 tensors)

ent_embeddings.weight f4 [87, 50]
000000 32 45 bb 3d 77 1b d4 bd 94 90 eb 3b ef f3 1f bc
       0.09144057 -0.10356801 0.007188866 -0.009762748
000010 28 0a 07 3e b8 4f d9 3d a9 01 67 3e bb 9c 32 3d
       0.13187468 0.10610908 0.22559227 0.0436065
000020 6b 1c 14 be fc a0 f0 3d 37 8a c1 bd a1 1a 2c 3d
       -0.14463966 0.11749455 -0.094501905 0.042017583
000030 8d 55 a6 bd dd a9 83 bd 2f a8 67 3e 28 c3 f3 3d
       -0.08121786 -0.06428883 0.2262275 0.119024575
000040 5e fd 91 bc 14 8e 95 bc 7f b7 e9 bd 23 bd bf 3d
       -0.01782101 -0.018256225 -0.11411952 0.09362247
000050 c6 5c d1 3c 54 9f 1a be a0 65 d7 bd 6a b4 ca 3d
       0.025556933 -0.15099841 -0.1051743 0.098976925
000060 03 3c 93 3d 04 1f 1f be 3e c3 79 3d 22 6c 6d 3d
       0.07189181 -0.15539175 0.060977213 0.05796445
000070 6e 8b 0d be 72 4d 1a 3e f0 11 2f 3e 13 ab ef 3d
       -0.1382272 0.15068606 0.17096686 0.11702552
000080 2a 06 1f be f7 28 82 bd ef 44 cd bd f7 cd b6 3d
       -0.15529695 -0.0635547 -0.10022914 0.089260034
000090 50 b1 9f 3c ba 74 44 be af a6 8c 3d 8f 04 46 3d
       0.019493729 -0.19185153 0.0686773 0.04834419
0000a0 ae 50 b3 3c 1f e4 d4 3d 76 fd c1 3c 0f 91 66 bd
       0.021889057 0.10395073 0.02368043 -0.056290682
0000b0 ad fe 2a be 0a f8 45 be 40 32 63 bd 5c 45 d3 bc
       -0.16698714 -0.193329 -0.055467844 -0.025789909
0000c0 cd 21 2f 3e 9c 69 90 bd b2 0f a9 3d ca 96 e4 3d
       0.17102738 -0.070513934 0.08254947 0.11161573
0000d0 d9 ca 9c 3e ba ec 64 3d 5a 62 c3 bd 11 e8 ea 3c
       0.3062351 0.055889823 -0.095402434 0.028675111
0000e0 3d 8b ef bd 5c 11 09 be c3 4e ab bd d8 78 01 3e
       -0.116964795 -0.13385528 -0.08364632 0.12643754
0000f0 0a cd 92 bc a0 67 f6 bc 46 90 03 3e f5 8f 8d 3d
       -0.017920036 -0.03007871 0.12848005 0.06912223
000100 68 c3 b7 bb 2f 75 a4 3d 0f 0d 25 be a1 c6 ee bc
       -0.005608011 0.080301635 -0.16118263 -0.029147448
000110 d8 57 bf 3d 7b 7d 2a 3d 1e 2b 4d 3e 4b 35 31 3e
       0.09342927 0.041623574 0.20035979 0.17305486
000120 92 21 e3 bc 38 30 07 3e 63 16 04 3d 79 c0 31 be
       -0.027725969 0.13201988 0.032247912 -0.17358579
000130 a3 1d f7 bd a6 7b ee 3d d4 e0 d1 bb 13 cb c7 be
       -0.120662 0.11644678 -0.0064049754 -0.3902212
000140 50 91 06 bd b1 95 66 bd f2 00 fd bd 7f 97 f5 3d
       -0.032853425 -0.0562951 -0.12353696 0.11991786
000150 97 30 8c 3d 88 bf 5d 3e 36 29 69 bd b0 f3 9d 3e
       0.06845205 0.21655095 -0.056924067 0.3084998
000160 2b b5 b2 bd 03 69 61 bc 88 c6 e0 bd b5 58 ff 3d
       -0.08725961 -0.013757947 -0.10975367 0.124680914
000170 9d 4c f5 bd fa b9 20 be 61 12 8f bc b0 29 b5 3d
       -0.119775034 -0.15695944 -0.017464818 0.08845842
000180 80 66 5b 3c 9c 52 6a 3d 2e f7 fa 3d ee 56 c6 bd
       0.013391137 0.05720769 0.12254177 -0.09684549
000190 a2 5a ea bd b2 5e 50 3e 1c c5 db 3c 6b 7c 10 3e
       -0.11443068 0.20348623 0.026827388 0.14109962
0001a0 b5 18 dd bd 1b 1f 24 3e 50 1d 3b 3e 6f 67 26 3e
       -0.10795728 0.16027491 0.182729 0.16250394
0001b0 62 e8 20 3e 98 de be 3d 44 1a 13 ba c9 cb 2d be
       0.15713647 0.093198 -0.0005611519 -0.16972269
0001c0 b7 94 4e be e6 12 b3 3d 5c 43 e5 bc 3c d7 c2 3d
       -0.20173918 0.08743839 -0.027986221 0.09513709
0001d0 76 f1 13 be 4d 9a f0 bd d1 3f 08 be c5 1a 54 3e
       -0.14447579 -0.117481805 -0.13305594 0.20713337
0001e0 59 48 43 be 20 c9 0e 3e 8f b2 2d be 75 a8 1d 3e
       -0.19070567 0.1394391 -0.16962646 0.15396293
0001f0 47 99 36 be bf 6c 15 3e 9e bc 06 3e c8 03 34 be
       -0.17831908 0.14592265 0.13157889 -0.17579567
000200 9b a9 56 bd 80 21 d2 3d 9b bf 5f bd 93 7f c1 3d
       -0.052407842 0.10260296 -0.05462609 0.09448161
000210 fa 0f fb 3d 30 76 62 bd 32 60 66 be ba 8a 21 3e
       0.12258907 -0.055288494 -0.22497633 0.15775576
000220 7e f5 30 bd 53 93 18 3e 9c 5e 07 bd 31 fd 3b 3e
       -0.04320287 0.1489995 -0.03304921 0.18358304
000230 5b 02 4d be f8 ec bf b9 c6 c8 19 3e 83 25 89 bd
       -0.2002043 -0.00036606914 0.15017995 -0.06696608
000240 9a 9b 71 3d 9e 86 5f bd 46 c5 25 be 34 d4 46 be
       0.058986284 -0.05457174 -0.16188535 -0.19416887
000250 e0 8c 32 3e 82 14 d9 3d ea c6 ba 3d f3 52 3f be
       0.17436552 0.10599615 0.09119971 -0.18683986
000260 e8 e0 b4 3d 6d af 90 3e a2 16 26 3e 53 3f da bd
       0.0883196 0.2825884 0.16219571 -0.106566094
000270 2b f2 17 3d 0f 6d 0f be 10 a5 a3 3d 7d 05 22 3e
       0.037096184 -0.14006446 0.079904675 0.15822406
000280 b4 40 97 bd 0a 48 8a 3e ae cf 64 be f9 2a 1b 3e
       -0.07385388 0.27008086 -0.22344849 0.15153112
000290 de 67 72 3e 8a 92 41 be 42 fc 25 be b0 66 2f bd
       0.23672435 -0.18903556 -0.1620951 -0.04282254
0002a0 24 5d 4b 3e 13 a7 17 be 8f e2 5e 3d c7 e3 10 3d
       0.19859749 -0.14809828 0.05441528 0.035373475
0002b0 98 9d f5 3d b6 d1 31 bd 02 34 d0 3c e7 93 d7 bc
       0.11992949 -0.043412887 0.025415424 -0.026315643
0002c0 6b 25 67 be a8 0b 08 be 90 54 73 be 23 a5 45 3e
       -0.22572868 -0.13285697 -0.23762727 0.19301276
0002d0 41 d0 2c 3e 4c 76 62 bd 8e 14 03 3e 85 fb 91 3c
       0.16876318 -0.055288598 0.1280081 0.01782013
0002e0 a5 c4 b4 bd 79 89 5e 3d 66 1a 31 3e 0e 89 5e bd
       -0.088265695 0.054330323 0.17295226 -0.054329924
0002f0 14 95 73 bd 65 38 1e be ee 79 ac bb eb 91 a0 3d
       -0.059468344 -0.154512 -0.0052635586 0.07840332
000300 f1 7e 3a 3e 62 8b 98 bd 82 47 2a be 80 28 f8 bd
       0.18212487 -0.0744846 -0.1662884 -0.121171
000310 88 12 19 be 48 7c 13 bd 73 f5 e2 bc 44 68 21 be
       -0.14948475 -0.036007196 -0.02770493 -0.1576243
000320 7c b4 ae bb a3 07 68 3e f5 a4 ef bd f4 01 cb bd
       -0.005331574 0.22659163 -0.11701385 -0.09912482
000330 a8 c5 43 bd 1b d4 b2 bc ee 5f 11 3c ec 1b a7 bd
       -0.04779592 -0.021829655 0.008872969 -0.081596226
000340 55 7a 5d 3d ec 9b 02 3d 03 3e 35 3d c7 60 4f be
       0.054071743 0.03188698 0.044248592 -0.20251761
000350 56 69 29 be 8a ff 32 3d 56 8a 60 bc ba a7 08 3c
       -0.16544089 0.043700732 -0.013704857 0.00834077
000360 d1 98 ba bd 55 80 7a 3e 8f 76 46 3d 90 2a 84 3d
       -0.09111179 0.24463017 0.04845291 0.06453431
000370 be c9 8d bd 11 cf 0a 3e 8f e8 30 3e 12 5a 30 3e
       -0.06923245 0.13555552 0.17276214 0.17221859
000380 dc 08 45 3c 8b 0f 12 be 38 6b 3b 3b 76 a2 98 bb
       0.012026038 -0.14263742 0.0028597843 -0.0046580387
000390 b2 21 a8 3b 30 e8 da bd d2 23 33 3c 4d 8c 22 bd
       0.00513097 -0.106888175 0.010933833 -0.039684583
0003a0 d0 bd eb bb 41 b0 04 3e 3c dc d0 3d 3b 0e ab bd
       -0.0071942583 0.1295786 0.101982564 -0.083523236
0003b0 29 cd 80 3d e9 f4 70 bd b9 0b c4 bd d2 b1 12 bd
       0.06289131 -0.058827315 -0.095725484 -0.035814114
0003c0 e5 40 97 bd 5c 23 f0 3c 9e a7 c8 3d 03 83 80 3e
       -0.073854245 0.029313736 0.097975954 0.25099954
0003d0 5b 48 1f be b5 87 fd bd 0b 0e b0 bd b9 02 7f 3d
       -0.15554945 -0.123794 -0.085964285 0.062258456
0003e0 04 1e 1b be 21 ab df bd 5c 6e 4c be fe 44 51 be
       -0.15148169 -0.10921312 -0.19963974 -0.20436475
0003f0 90 72 4b 3e cc 36 23 be f1 2e 5d bd ed 93 49 be
       0.19867921 -0.15938872 -0.053999845 -0.19685335

rel_embeddings.weight f4 [14, 50]
000000 93 13 35 3c 10 07 33 be 97 eb 21 be 6e 32 25 be
       0.01105203 -0.17483163 -0.15812527 -0.16132519
000010 0f 02 05 3e 24 19 82 3e 63 33 61 3e a8 38 25 3e
       0.12989067 0.25409806 0.21992259 0.16134894
000020 e7 5c 0b 3d 12 14 31 3d e5 e5 70 3b 0f 09 2c 3e
       0.034024145 0.04323203 0.0036758122 0.1680033
000030 b5 fc 99 3e 2f ad 65 be f1 88 36 be 0f a8 85 be
       0.30075613 -0.22429346 -0.17825677 -0.2610478
000040 e4 ac 94 3e b1 39 73 be 2a 46 9c 3e 36 b2 17 3e
       0.29038155 -0.23752476 0.3052228 0.14814076
000050 b2 f8 94 bc c6 b1 9e 3e b8 16 fb bd e5 fe 4d be
       -0.018184993 0.30995005 -0.12260193 -0.20116766
000060 21 a8 69 be 48 86 f3 3d 77 66 84 be f8 3b 8e 3d
       -0.22818042 0.118908465 -0.25859424 0.06945032
000070 69 13 44 be d3 53 81 be 5c 96 3b be 7d f2 60 be
       -0.1914803 -0.25259265 -0.18319076 -0.21967502
000080 e2 be 20 be 21 00 cf bd 8f b4 50 3e bd dc 1a 3e
       -0.15697816 -0.101074465 0.20381378 0.15123267
000090 ae e9 69 3e dd 80 13 3e 10 14 1a be 3e 13 e5 bd
       0.22843048 0.14404626 -0.15046716 -0.11185311
0000a0 34 b9 f5 ba 00 63 68 3d de f1 64 be 85 f3 96 be
       -0.0018747211 0.05673504 -0.2235789 -0.29482666
0000b0 e5 b5 10 be 91 7e e1 3d 02 9b 96 3d 03 80 8f be
       -0.14131887 0.11010469 0.07353784 -0.28027353
0000c0 d4 99 47 be 3b 3a 94 3e ec 99 12 be 5b cc 84 be
       -0.19492275 0.28950676 -0.14316529 -0.2593716
0000d0 40 4a c0 3d cb da cf 3d bf a5 29 3d 33 3c ed 3d
       0.09389162 0.10149153 0.041417833 0.11583748
0000e0 f3 a2 31 3e b9 15 23 be 81 f0 c4 bd 00 84 0b be
       0.17347316 -0.15926255 -0.09616185 -0.13624573
0000f0 37 17 84 3e 48 16 1a be b4 12 cf 3d ac 8e 43 3e
       0.25798962 -0.15047562 0.10110989 0.19097394
000100 27 f7 5a be 70 c7 5b be 6a 9e 91 3e 8f d2 47 bd
       -0.21383344 -0.21462798 0.28441173 -0.04878479
000110 c8 64 6d bd 65 ad 6a 3d cc 66 6a be f6 c3 76 3e
       -0.05795744 0.05729427 -0.22890776 0.2409819
000120 61 c5 3b be a1 d6 16 be 83 0c 17 3e 25 19 3e 3e
       -0.18337013 -0.14730312 0.14750867 0.1856428
000130 69 69 61 3e ad c7 8e 3d ff d1 23 be 13 c3 2f be
       0.22012867 0.06971679 -0.15998076 -0.17164259
000140 ae 1c 95 be 9c a1 f3 bd fd 98 49 be 1e 74 65 bc
       -0.29123443 -0.11896059 -0.19687267 -0.014004735
000150 9a ad 11 be 95 40 90 be 69 63 ff bd 39 a0 d2 3d
       -0.1422638 -0.28174272 -0.12470133 0.10284466
000160 c3 4f 28 bd 28 cc 26 bd 76 23 16 be 2e 2f 5c be
       -0.04109169 -0.040722042 -0.14661965 -0.21502373
000170 15 c1 81 3d ac 27 9d 3c 06 85 56 3e f6 f5 ee 3d
       0.063356556 0.019183956 0.20949182 0.11668007
000180 2d 10 be 3d c1 ac f5 bd a2 69 5f 3d 83 71 1f be
       0.09280429 -0.11995841 0.0545441 -0.15570645
000190 56 34 11 3e b7 f9 12 be fc c7 88 be ec ed 88 3e
       0.14180121 -0.14353071 -0.26715076 0.2674402
0001a0 25 26 15 3e 5e 31 12 3e a5 62 8d 3e da 7a 20 3e
       0.14565332 0.14276645 0.27614322 0.15671864
0001b0 8e 88 9f bd 5b c1 82 3d 1d 48 f4 3d c7 29 1f 3e
       -0.077897176 0.06384536 0.11927817 0.1554328
0001c0 66 53 0e 3d 1c 88 1d 3e 0a 95 25 bd 1f a9 33 bc
       0.034747504 0.15383953 -0.040425338 -0.010965615
0001d0 fc ef 95 3e c2 c7 e2 3d 98 50 4d 3e 22 04 b2 3d
       0.29284656 0.11073257 0.20050275 0.086921945
0001e0 2d 63 12 3e f6 7f a4 3d 16 af 09 3e 9b b0 df bc
       0.14295645 0.08032219 0.13445696 -0.027305892
0001f0 da 7c e6 3d 02 1d 84 3e 86 d6 85 3e b3 96 03 3d
       0.11254282 0.2580338 0.2614023 0.03212614
000200 ff 2d 3b 3d 43 f3 7b be 49 85 da 3d c2 3a c9 bc
       0.045698162 -0.24604516 0.106699534 -0.02456415
000210 7e 86 c4 3d 5e 25 97 3e 60 e5 3b bd a9 a1 20 3e
       0.09595965 0.29520696 -0.045873046 0.15686668
000220 d4 3a d4 bd cb fe 99 be 34 e3 96 3e f4 2f 23 3e
       -0.10362783 -0.30077204 0.29470217 0.15936261
000230 ba 2c 91 3e d5 3d 81 be e1 12 95 3e df d9 09 bd
       0.28354436 -0.25242487 0.29115966 -0.033655044
000240 de 93 67 3e e3 d0 16 3e 88 17 00 3e b6 a9 89 be
       0.22615 0.14728121 0.12508976 -0.26887292
000250 83 bc 0b 3e ad 85 89 be 37 e3 73 be 0a 75 01 3c
       0.1364613 -0.268598 -0.23817144 0.007901439
000260 8e ce fe bc 66 8c 2f 3d 26 d0 88 3e 3f a6 28 3e
       -0.031104352 0.042858504 0.26721305 0.16469668
000270 a3 f4 1f 3e 25 9e 90 3e 04 06 09 3e 96 bb 1d be
       0.15620665 0.28245655 0.13381201 -0.1540359
000280 1e 9d 5c 3e fd 7a 86 bd 2b 30 be 3d 75 35 64 be
       0.2154431 -0.06566427 0.09286531 -0.22286017
000290 d5 4e a9 bd 01 cc 18 3e 70 ad 21 be 36 40 08 be
       -0.08266989 0.14921571 -0.15788817 -0.13305745
0002a0 71 ef 55 3e 7c 24 a9 bd 6f b7 84 3e 34 76 df 3d
       0.20892121 -0.08258912 0.259212 0.10911217
0002b0 fd 83 2d bd e5 0c 2c bd fe 5b 67 bd 59 72 8f be
       -0.042362202 -0.042004485 -0.056484215 -0.28016928
0002c0 9a 81 76 be 27 c7 cf 3d eb 48 9d bd 82 d0 7d 3e
       -0.24072877 0.10145407 -0.076799236 0.2478657
0002d0 14 bb f8 3d c7 ec 44 be aa ac cf bd 5e 8b 5b bd
       0.12145057 -0.19230948 -0.10140355 -0.053599708
0002e0 c0 18 fe bd bb ca 16 be a3 25 31 3d f8 c5 83 3e
       -0.124070644 -0.14725773 0.043248784 0.25736976
0002f0 74 7e 4e bd 5a 52 80 be 35 15 4a 3e 9d cf 81 be
       -0.050413564 -0.2506283 0.19734652 -0.2535371
000300 9b a4 80 bd 7c 30 96 be 11 f8 cb 3d f5 d2 98 3e
       -0.06281396 -0.29333866 0.09959424 0.29848447
000310 71 c1 e6 3d 50 c8 67 3d 1f c5 cc bd 8c e8 8a be
       0.11267365 0.056587517 -0.09998535 -0.27130544
000320 ba 51 64 3e 9f c1 31 3d 04 76 71 3e 99 9f c9 3d
       0.22296801 0.043397542 0.23580176 0.09844894
000330 62 c4 81 3e f7 c0 83 be 1f 7e c9 bc 2a 5b db 3d
       0.2534514 -0.25733158 -0.024596272 0.107107475
000340 64 8f a7 3e 80 62 4d 3e 59 6e 81 3e af f7 92 3e
       0.32726586 0.20057106 0.252795 0.28704593
000350 35 ce 64 3e 37 02 a6 3e 6a 82 23 3e 05 20 d4 bd
       0.22344287 0.32423565 0.15967718 -0.1035767
000360 71 bf bc 3d 27 cd a4 bd b1 af 0c 3e b5 cc d4 3d
       0.09216202 -0.08046942 0.13738896 0.10390607
000370 32 06 a7 3d 58 f4 e1 bc 2e 30 42 3d 0f ad 67 be
       0.081554785 -0.027582332 0.04740923 -0.2262461
000380 d9 72 b0 be db 6d 84 be 87 14 90 bd ca c7 cb bd
       -0.34462622 -0.25865063 -0.07035165 -0.09950216
000390 df b5 78 be c0 eb 1a 3e 40 d5 7d 3e c8 b4 83 3e
       -0.24288128 0.15128994 0.2478838 0.25723863
0003a0 63 47 86 bd 77 8d f2 3d 94 81 63 be e5 d3 2c be
       -0.06556585 0.118433885 -0.22217399 -0.16877706
0003b0 d2 7c 8a 3d 71 ad b4 bd 9c 37 dc bd 66 8f 7c 3e
       0.06762089 -0.08822144 -0.10752794 0.24664077
0003c0 71 a7 c9 3d e2 1c af bc df a9 35 3d b2 84 88 3d
       0.0984639 -0.021376077 0.044351455 0.066659346
0003d0 7d 32 3c 3e e5 17 83 3e 37 a9 e6 3d d2 dc b8 3d
       0.18378635 0.25604168 0.11262744 0.09026493
0003e0 a4 94 3f bd 40 ac 45 bd b0 7e 66 be 70 67 64 be
       -0.046772614 -0.048259974 -0.22509265 -0.22305083
0003f0 fe 85 a3 3d 25 4f 9d bb 97 27 51 bd c8 7d 9d bd
       0.07984541 -0.0048006945 -0.051063146 -0.076900065
