checkpoint/TransE-399.ckpt (torch, 21287 bytes, 2 tensors)

ent_embeddings.weight f4 [87, 50]
0	0x3db938e8	0.09044057
1	0xbdc5c571	-0.096567996
2	0x3c26ef34	0.010188866
3	0xbbdd9a0b	-0.006762748
4	0x3e08104d	0.13287468
5	0x3ddf7496	0.10910909
6	0x3e63ef3a	0.22259226
7	0x3d3ee674	0.046606496
8	0xbe152290	-0.14563966
9	0x3df2ad46	0.118494555
10	0xbdbf7ded	-0.0935019
11	0x3d28020e	0.041017585
12	0xbda861d7	-0.082217865
13	0xbd89cebb	-0.06728884
14	0x3e68ae54	0.22722751
15	0x3df9e806	0.12202458
16	0xbc9a2e85	-0.01882101
17	0xbcae2189	-0.021256225
18	0xbde7ab35	-0.11311952
19	0x3db1671d	0.086622454
20	0x3ce9f03b	0.028556934
21	0xbe1ba579	-0.15199842
22	0xbdd971ea	-0.106174305
23	0x3dd90a70	0.10597694
24	0x3d9960e1	0.07489181
25	0xbe1e18df	-0.15439175
26	0x3d7ddbd1	0.06197721
27	0x3d69538f	0.056964453
28	0xbe0c8549	-0.13722719
29	0x3e173b03	0.14768605
30	0x3e2e0bcb	0.16996686
31	0x3ded9ec9	0.116025515
32	0xbe19e771	-0.15029694
33	0xbd843541	-0.0645547
34	0xbdc72011	-0.09722913
35	0x3db8da41	0.09026004
36	0x3ca7e277	0.020493729
37	0xbe457adf	-0.19285153
38	0x3d96e421	0.07367731
39	0x3d41ebfc	0.047344193
40	0x3c8a5aeb	0.016889056
41	0x3ddf2191	0.10895074
42	0x3cb9cc4f	0.02268043
43	0xbd6aa9a2	-0.05729068
44	0xbe29f888	-0.16598713
45	0xbe490a79	-0.19632901
46	0xbd6f7bf9	-0.05846784
47	0xbcfc3b1f	-0.03078991
48	0x3e2e1ba8	0.17002738
49	0xbd9ebfa2	-0.07751395
50	0x3da70367	0.08154946
51	0x3de6a314	0.112615734
52	0x3e9a3b7e	0.30123514
53	0x3d58a2fe	0.052889816
54	0xbdc56ea4	-0.09640244
55	0x3cf31938	0.029675111
56	0xbdf5b01b	-0.1199648
57	0xbe080b37	-0.13285528
58	0xbdb173a0	-0.08664632
59	0x3dfcccd3	0.123437546
60	0xbcab607f	-0.020920036
61	0xbcfe98c9	-0.031078713
62	0x3e04966b	0.12948005
63	0x3d8f9c3f	0.070122235
64	0xbb2aeb28	-0.0026080105
65	0x3da68179	0.08130164
66	0xbe2406ea	-0.16018263
67	0xbcc5d0de	-0.024147447
68	0x3db932fb	0.09042927
69	0x3d2664e8	0.040623575
70	0x3e503d8d	0.2033598
71	0x3e2c1692	0.16805485
72	0xbcdaf06b	-0.026725968
73	0x3e02117f	0.12701987
74	0x3cef9951	0.029247912
75	0xbe2eae0a	-0.17058578
76	0xbdf51159	-0.119661994
77	0x3de025a2	0.10944678
78	0xbc1a1754	-0.009404976
79	0xbec641db	-0.3872212
80	0xbd0278bd	-0.031853426
81	0xbd6aae45	-0.057295103
82	0xbdfaf4a8	-0.12253696
83	0x3def72a2	0.11691786
84	0x3d925574	0.07145205
85	0x3e54883b	0.20755093
86	0xbd6510a3	-0.05592407
87	0x3e9d709d	0.3074998
88	0xbda45f27	-0.08025961
89	0xbc304219	-0.010757946
90	0xbdd68919	-0.10475368
91	0x3e02bec9	0.12768091
92	0xbdeb0f2d	-0.11477504
93	0xbe1b9b41	-0.15195943
94	0xbc86e13a	-0.016464818
95	0x3daf04d4	0.08545843
96	0x3c6bc8ce	0.014391137
97	0x3d769c57	0.06020769
98	0x3df8eae4	0.12154177
99	0xbdc44aa5	-0.0958455
100	0xbdea5aa2	-0.11443068
101	0x3e505eb2	0.20348623
102	0x3cdbc51c	0.026827388
103	0x3e107c6b	0.14109962
104	0xbddd18b5	-0.10795728
105	0x3e241f1b	0.16027491
106	0x3e3b1d50	0.182729
107	0x3e26676f	0.16250394
108	0x3e20e862	0.15713647
109	0x3dbede98	0.093198
110	0xba131a44	-0.0005611519
111	0xbe2dcbc9	-0.16972269
112	0xbe4e94b7	-0.20173918
113	0x3db312e6	0.08743839
114	0xbce5435c	-0.027986221
115	0x3dc2d73c	0.09513709
116	0xbe13f176	-0.14447579
117	0xbdf09a4d	-0.117481805
118	0xbe083fd1	-0.13305594
119	0x3e541ac5	0.20713337
120	0xbe434859	-0.19070567
121	0x3e0ec920	0.1394391
122	0xbe2db28f	-0.16962646
123	0x3e1da875	0.15396293
124	0xbe369947	-0.17831908
125	0x3e156cbf	0.14592265
126	0x3e06bc9e	0.13157889
127	0xbe3403c8	-0.17579567
128	0xbd56a99b	-0.052407842
129	0x3dd22180	0.10260296
130	0xbd5fbf9b	-0.05462609
131	0x3dc17f93	0.09448161
132	0x3dfb0ffa	0.12258907
133	0xbd627630	-0.055288494
134	0xbe666032	-0.22497633
135	0x3e218aba	0.15775576
136	0xbd30f57e	-0.04320287
137	0x3e189353	0.1489995
138	0xbd075e9c	-0.03304921
139	0x3e3bfd31	0.18358304
140	0xbe4d025b	-0.2002043
141	0xb9bfecf8	-0.00036606914
142	0x3e19c8c6	0.15017995
143	0xbd892583	-0.06696608
144	0x3d719b9a	0.058986284
145	0xbd5f869e	-0.05457174
146	0xbe25c546	-0.16188535
147	0xbe46d434	-0.19416887
148	0x3e328ce0	0.17436552
149	0x3dd91482	0.10599615
150	0x3dae7d30	0.08519971
151	0xbe415f3d	-0.18883987
152	0x3db0c854	0.086319596
153	0x3e8d9cff	0.2765884
154	0x3e2c3b80	0.16819572
155	0xbdd626bf	-0.10456609
156	0x3d40e7ed	0.04709618
157	0xbe117959	-0.14206447
158	0x3d9f8c7c	0.07790467
159	0x3e1be09f	0.15222405
160	0xbd9b5948	-0.075853884
161	0x3e87359c	0.26408088
162	0xbe66dbf8	-0.22544849
163	0x3e214fd7	0.15753113
164	0x3e6c4300	0.23072433
165	0xbe439ed4	-0.19103557
166	0xbe28088c	-0.1640951
167	0xbd47fa24	-0.048822537
168	0x3e559a96	0.20859751
169	0xbe19b35d	-0.15009828
170	0x3d6713b5	0.05641528
171	0x3d214614	0.039373472
172	0x3df59d99	0.1199295
173	0xbd193e42	-0.03741289
174	0x3ce09650	0.027415425
175	0xbcc73199	-0.024315642
176	0xbe630cd7	-0.22172867
177	0xbe05ff5e	-0.13085696
178	0xbe714846	-0.23562726
179	0x3e3b67b1	0.18301274
180	0x3e370db3	0.1787632
181	0xbd6aa772	-0.057288595
182	0x3e0520d8	0.1300081
183	0x3ca25dd3	0.01982013
184	0xbda87aeb	-0.0822657
185	0x3d66ba9f	0.05633032
186	0x3e2d01d2	0.16895226
187	0xbd6eeb5d	-0.05832993
188	0xbd5b01a0	-0.053468347
189	0xbe2044af	-0.156512
190	0xbc594f67	-0.01326356
191	0x3da4aa7f	0.08040332
192	0x3e40a3cf	0.18812488
193	0xbd9ca3f6	-0.076484606
194	0xbe2c53cc	-0.16828841
195	0xbdfc4114	-0.123171
196	0xbe1b1ed2	-0.15148476
197	0xbd1bad6e	-0.038007192
198	0xbcb1ce89	-0.021704929
199	0xbe278d22	-0.16362432
200	0xbbf03db4	-0.0073315743
201	0x3e63ef0f	0.22259162
202	0xbdf7d620	-0.12101388
203	0xbdc2d0cd	-0.09512482
204	0xbd336359	-0.043795917
205	0xbc6295c7	-0.013829655
206	0x3be136a4	0.0068729687
207	0xbd9eeac4	-0.07759622
208	0x3d83380b	0.06407174
209	0x3cf4d58a	0.02988698
210	0x3d353e00	0.04424858
211	0xbe472f9f	-0.1945176
212	0xbe234478	-0.15944088
213	0x3d6c5795	0.057700712
214	0xbc3fc5ba	-0.0117048565
215	0x3bcfc63c	0.00634077
216	0xbdae4f15	-0.085111775
217	0x3e745b77	0.23863016
218	0x3d361444	0.04445292
219	0x3d884323	0.0665343
220	0xbd91e251	-0.071232446
221	0x3e130039	0.14355554
222	0x3e30e88f	0.17276214
223	0x3e2828ea	0.16421857
224	0x3ca40da6	0.02002604
225	0xbe0df6f7	-0.13863741
226	0x3be0c80c	0.006859785
227	0xba2c8034	-0.0006580383
228	0xbb3c0658	-0.0028690305
229	0xbdef6314	-0.116888195
230	0x3c9b1b21	0.018933835
231	0xbd228c4e	-0.039684586
232	0xbb5156c1	-0.0031942578
233	0x3df8fe32	0.12157859
234	0x3dc8ab14	0.097982556
235	0xbdaf26ce	-0.08552323
236	0x3d84e5bd	0.064891316
237	0xbd70f4ea	-0.05882732
238	0xbdcc3cdf	-0.09972548
239	0xbd2b4542	-0.041814096
240	0xbdabbbc9	-0.083854266
241	0x3c8dd588	0.017313734
242	0x3dccc033	0.099975966
243	0x3e76c895	0.24099953
244	0xbe19237d	-0.14954944
245	0xbdf96f20	-0.121793985
246	0xbd9fabbc	-0.077964276
247	0x3d8fe3ad	0.070258476
248	0xbe2142e2	-0.1574817
249	0xbdf00d72	-0.117213145
250	0xbe4c6e5c	-0.19963974
251	0xbe5144fe	-0.20436475
252	0x3e4b7290	0.19867921
253	0xbe2336cc	-0.15938872
254	0xbd5d2ef1	-0.053999845
255	0xbe4993ed	-0.19685335

rel_embeddings.weight f4 [14, 50]
0	0x3c144ef7	0.00905203
1	0xbe330710	-0.17483163
2	0xbe21eb97	-0.15812527
3	0xbe25326e	-0.16132519
4	0x3e02f5c5	0.12789066
5	0x3e821924	0.25409806
6	0x3e613363	0.21992259
7	0x3e2744f2	0.16334894
8	0x3d138e0e	0.036024146
9	0x3d311412	0.04323203
10	0x3b70e5e5	0.0036758122
11	0x3e2c090f	0.1680033
12	0x3e99fcb5	0.30075613
13	0xbe61949b	-0.22029345
14	0xbe38953b	-0.18025677
15	0xbe85a80f	-0.2610478
16	0x3e94ace4	0.29038155
17	0xbe712d67	-0.23552476
18	0x3e9c462a	0.3052228
19	0x3e17b236	0.14814076
20	0xbc94f8b2	-0.018184993
21	0x3e9daba1	0.30795005
22	0xbdfb16b8	-0.12260193
23	0xbe500b2f	-0.20316766
24	0xbe69a821	-0.22818042
25	0x3df38648	0.118908465
26	0xbe846677	-0.25859424
27	0x3d92548b	0.071450315
28	0xbe441369	-0.1914803
29	0xbe8153d3	-0.25259265
30	0xbe3b965c	-0.18319076
31	0xbe60f27d	-0.21967502
32	0xbe20bee2	-0.15697816
33	0xbdcf0021	-0.101074465
34	0x3e4ea845	0.20181377
35	0x3e1ce907	0.15323268
36	0x3e6bf5f8	0.23043048
37	0x3e158d27	0.14604627
38	0xbe15fb7c	-0.14646715
39	0xbde5133e	-0.11185311
40	0xbb7def09	-0.0038747212
41	0x3d6031d9	0.05473504
42	0xbe64f1de	-0.2235789
43	0xbe96f385	-0.29482666
44	0xbe12c22f	-0.14331888
45	0x3dd94d6b	0.106104694
46	0x3d92826f	0.071537845
47	0xbe8f8003	-0.28027353
48	0xbe49a61e	-0.19692275
49	0x3e943a3b	0.28950676
50	0xbe14a636	-0.1451653
51	0xbe84cc5b	-0.2593716
52	0x3dbc31ad	0.091891624
53	0x3dd3f35e	0.10349153
54	0x3d29a5bf	0.041417833
55	0x3de0f27a	0.10983749
56	0x3e31a2f3	0.17347316
57	0xbe2315b9	-0.15926255
58	0xbdc0d7ee	-0.09416185
59	0xbe055f22	-0.13024572
60	0x3e8104c8	0.2519896
61	0xbe1809fe	-0.14847562
62	0x3dcafa21	0.099109896
63	0x3e418262	0.18897393
64	0xbe56de93	-0.20983343
65	0xbe5bc770	-0.21462798
66	0x3e92a48f	0.28641173
67	0xbd377041	-0.044784788
68	0xbd54d153	-0.05195744
69	0x3d315554	0.043294266
70	0xbe6c7316	-0.23090777
71	0x3e76c3f6	0.2409819
72	0xbe339439	-0.17537011
73	0xbe1cfb7f	-0.15330313
74	0x3e170c83	0.14750867
75	0x3e3c0cdb	0.18364279
76	0x3e616969	0.22012867
77	0x3d92e040	0.071716785
78	0xbe23d1ff	-0.15998076
79	0xbe37f43b	-0.1796426
80	0xbe951cae	-0.29123443
81	0xbdeb7076	-0.114960596
82	0xbe4998fd	-0.19687267
83	0xbc44af83	-0.012004736
84	0xbe077028	-0.13226378
85	0xbe904095	-0.28174272
86	0xbdf73243	-0.120701335
87	0x3dc65680	0.09684467
88	0xbd201e9c	-0.03909169
89	0xbceb4a7c	-0.02872204
90	0xbe0ffe98	-0.14061964
91	0xbe5e3b78	-0.21702373
92	0x3d81c115	0.063356556
93	0x3c78c620	0.015183955
94	0x3e5eb62e	0.21749184
95	0x3deef5f6	0.11668007
96	0x3db9f79a	0.090804294
97	0xbdf5acc1	-0.11995841
98	0x3d3673df	0.044544097
99	0xbe1f7183	-0.15570645
100	0x3e113456	0.14180121
101	0xbe0ac88f	-0.1355307
102	0xbe88c7fc	-0.26715076
103	0x3e87e7c7	0.2654402
104	0x3e1319db	0.14365332
105	0x3e1c6ed0	0.15276647
106	0x3e8d62a5	0.27614322
107	0x3e228724	0.15871865
108	0xbd9f888e	-0.077897176
109	0x3d86d9ee	0.065845355
110	0x3dec16f7	0.11527818
111	0x3e1d1d7d	0.1534328
112	0x3d0e5366	0.034747504
113	0x3e1f9466	0.15583953
114	0xbd2dc631	-0.04242534
115	0xbbe43fce	-0.006965614
116	0x3e95effc	0.29284656
117	0x3de6e055	0.11273257
118	0x3e4d5098	0.20050275
119	0x3dadeb8f	0.08492195
120	0x3e146f77	0.14495645
121	0x3da89889	0.08232219
122	0x3e0fd3f4	0.14045697
123	0xbcbeebff	-0.023305891
124	0x3de26447	0.11054283
125	0x3e841d02	0.2580338
126	0x3e85d686	0.2614023
127	0x3cf6cb18	0.03012614
128	0x3d32fcd8	0.04369816
129	0xbe79e6f9	-0.24404515
130	0x3dd25423	0.10269954
131	0xbcfa61ac	-0.030564152
132	0x3db42432	0.08795966
133	0x3e97255e	0.29520696
134	0xbd1b20c4	-0.037873045
135	0x3e28d2d1	0.1648667
136	0xbdd85367	-0.10562783
137	0xbe99fecb	-0.30077204
138	0x3e97e959	0.29670218
139	0x3e232ff4	0.15936261
140	0x3e912cba	0.28354436
141	0xbe8037b0	-0.25042486
142	0x3e9512e1	0.29115966
143	0xbce28cd4	-0.027655043
144	0x3e637b4a	0.22215
145	0x3e16d0e3	0.14728121
146	0x3e001788	0.12508976
147	0xbe8aafdb	-0.27087292
148	0x3e07a3ef	0.1324613
149	0xbe8985ad	-0.268598
150	0xbe6dbe59	-0.23217143
151	0x3c42fe42	0.01190144
152	0xbcfece8e	-0.031104352
153	0x3d481fdb	0.048858505
154	0x3e8be295	0.27321306
155	0x3e2ecb1d	0.17069669
156	0x3e1ff4a3	0.15620665
157	0x3e909e25	0.28245655
158	0x3e0f2ae2	0.13981202
159	0xbe21d42a	-0.1580359
160	0x3e5c9d1e	0.2154431
161	0xbd746287	-0.059664275
162	0x3dbe302b	0.09286531
163	0xbe6641bf	-0.22486018
164	0xbdad6768	-0.08466989
165	0x3e18cc01	0.14921571
166	0xbe21ad70	-0.15788817
167	0xbe0633ec	-0.13105744
168	0x3e55ef71	0.20892121
169	0xbda50be9	-0.08058912
170	0x3e84b76f	0.259212
171	0x3debbfed	0.11511216
172	0xbd2552d6	-0.0403622
173	0xbd2c0ce5	-0.042004485
174	0xbd675bfe	-0.056484215
175	0xbe8f7259	-0.28016928
176	0xbe7ca678	-0.24672878
177	0x3dc37d6e	0.09545408
178	0xbd9517c5	-0.07279924
179	0x3e7dd082	0.2478657
180	0x3dfcd3a7	0.12345057
181	0xbe40d433	-0.18830948
182	0xbdcfacaa	-0.10140355
183	0xbd63bc85	-0.055599708
184	0xbdfe18c0	-0.124070644
185	0xbe14be71	-0.14525773
186	0x3d18922e	0.037248783
187	0x3e83c5f8	0.25736976
188	0xbd4e7e74	-0.050413564
189	0xbe80525a	-0.2506283
190	0x3e4c217f	0.19934653
191	0xbe81cf9d	-0.2535371
192	0xbd80a49b	-0.06281396
193	0xbe96307c	-0.29333866
194	0x3dcbf811	0.09959424
195	0x3e98d2f5	0.29848447
196	0x3de6c171	0.11267365
197	0x3d67c850	0.056587517
198	0xbdd0ddb2	-0.10198535
199	0xbe89e267	-0.26930544
200	0x3e6451ba	0.22296801
201	0x3d192e2a	0.03739754
202	0x3e652c48	0.22380173
203	0x3db524ba	0.08844896
204	0x3e7d63e6	0.2474514
205	0xbe83c0f7	-0.25733158
206	0xbc87f4e7	-0.01659627
207	0x3ddb5b2a	0.107107475
208	0x3ea6893f	0.32526585
209	0x3e4f6eca	0.20257106
210	0x3e7cb7d4	0.246795
211	0x3e8fe540	0.2810459
212	0x3e62c1eb	0.22144286
213	0x3ea0e37e	0.31423563
214	0x3e217620	0.15767717
215	0xbdc7d64c	-0.09757671
216	0x3dbcbf71	0.09216202
217	0xbd946adb	-0.072469436
218	0x3dbf42ba	0.09338899
219	0x3dc882fc	0.09790608
220	0x3d8a5a2d	0.06755481
221	0xbce1f458	-0.027582332
222	0x3d52927c	0.05140923
223	0xbe63947b	-0.2222461
224	0xbeb072d9	-0.34462622
225	0xbe857400	-0.26065063
226	0xbd83cace	-0.06435166
227	0xbdb33458	-0.08750218
228	0xbe749d4b	-0.23888128
229	0x3e21109e	0.15728995
230	0x3e6f7f3a	0.23388377
231	0x3e86c737	0.26323864
232	0xbd8a5ff6	-0.06756584
233	0x3de643be	0.112433895
234	0xbe69a672	-0.228174
235	0xbe26af07	-0.16277705
236	0x3d7c6632	0.0616209
237	0xbda03292	-0.078221455
238	0xbdc3a42a	-0.09552796
239	0x3e7a831c	0.24464077
240	0x3dd1d897	0.10246389
241	0xbc7bebf0	-0.015376076
242	0x3cf8a39d	0.030351454
243	0x3d846c1f	0.06465935
244	0x3e3819e9	0.17978634
245	0x3e8317e5	0.25604168
246	0x3dda5f7e	0.10662745
247	0x3db8dcd2	0.09026493
248	0xbd3f94a4	-0.046772614
249	0xbd3549f2	-0.044259973
250	0xbe667eb0	-0.22509265
251	0xbe646770	-0.22305083
252	0x3da385fe	0.07984541
253	0xbb9d4f25	-0.0048006945
254	0xbd512797	-0.051063146
255	0xbd9d7dc8	-0.076900065
