checkpoint/TransE-499.ckpt (torch, 21287 bytes, 2 tensors)

ent_embeddings.weight f4 [87, 50]
000000 c6 5d bf 3d e3 02 d0 bd e6 8c 16 3c a7 5e fe bb
       0.09344058 -0.101568006 0.009188866 -0.0077627483
000010 28 0a 07 3e 4c 68 dd 3d 5f f5 64 3e e1 cd 3a 3d
       0.13187468 0.10810909 0.22359227 0.045606498
000020 b5 28 16 be fc a0 f0 3d 37 8a c1 bd a1 1a 2c 3d
       -0.14663966 0.11749455 -0.094501905 0.042017583
000030 21 6e aa bd 71 c2 87 bd 2f a8 67 3e 94 aa ef 3d
       -0.08321787 -0.06628884 0.2262275 0.11702457
000040 5e fd 91 bc 14 8e 95 bc eb 9e e5 bd 8f a4 bb 3d
       -0.01782101 -0.018256225 -0.11211952 0.091622464
000050 c6 5c d1 3c 54 9f 1a be a0 65 d7 bd fe cc ce 3d
       0.025556933 -0.15099841 -0.1051743 0.10097693
000060 03 3c 93 3d 4e 2b 21 be 3e c3 79 3d 22 6c 6d 3d
       0.07189181 -0.15739176 0.060977213 0.05796445
000070 6e 8b 0d be 72 4d 1a 3e f0 11 2f 3e 13 ab ef 3d
       -0.1382272 0.15068606 0.17096686 0.11702552
000080 e0 f9 1c be f7 28 82 bd 5b 2c c9 bd f7 cd b6 3d
       -0.15329695 -0.0635547 -0.09822913 0.089260034
000090 9e 13 b0 3c 70 68 42 be af a6 8c 3d b5 35 4e 3d
       0.02149373 -0.18985152 0.0686773 0.050344188
0000a0 ae 50 b3 3c b3 fc d8 3d 76 fd c1 3c 0f 91 66 bd
       0.021889057 0.105950736 0.02368043 -0.056290682
0000b0 ad fe 2a be 0a f8 45 be 66 63 6b bd aa a7 e3 bc
       -0.16698714 -0.193329 -0.05746784 -0.02778991
0000c0 cd 21 2f 3e 30 82 94 bd b2 0f a9 3d 37 7e e0 3d
       0.17102738 -0.07251394 0.08254947 0.109615736
0000d0 8f be 9a 3e ba ec 64 3d 5a 62 c3 bd 11 e8 ea 3c
       0.3022351 0.055889823 -0.095402434 0.028675111
0000e0 3d 8b ef bd 5c 11 09 be 30 36 a7 bd d8 78 01 3e
       -0.116964795 -0.13385528 -0.08164632 0.12643754
0000f0 58 2f a3 bc 1e 96 0b bd 46 90 03 3e f5 8f 8d 3d
       -0.019920036 -0.03407871 0.12848005 0.06912223
000100 60 74 6c bb 2f 75 a4 3d 59 19 27 be 53 64 de bc
       -0.0036080107 0.080301635 -0.16318263 -0.027147448
000110 45 3f bb 3d 7b 7d 2a 3d 1e 2b 4d 3e b7 1c 2d 3e
       0.09142927 0.041623574 0.20035979 0.16905485
000120 92 21 e3 bc a4 17 03 3e 63 16 04 3d 79 c0 31 be
       -0.027725969 0.12801987 0.032247912 -0.17358579
000130 a3 1d f7 bd 13 63 ea 3d 06 b5 09 bc 13 cb c7 be
       -0.120662 0.11444678 -0.008404976 -0.3902212
000140 50 91 06 bd b1 95 66 bd f2 00 fd bd ec 7e f1 3d
       -0.032853425 -0.0562951 -0.12353696 0.117917866
000150 97 30 8c 3d 88 bf 5d 3e 36 29 69 bd d5 f9 9e 3e
       0.06845205 0.21655095 -0.056924067 0.31049982
000160 2b b5 b2 bd 03 69 61 bc 62 95 d8 bd a4 b8 01 3e
       -0.08725961 -0.013757947 -0.105753675 0.12668091
000170 0a 34 f1 bd b0 ad 1e be af 74 9f bc 8a f8 ac 3d
       -0.11777504 -0.15495944 -0.019464819 0.084458426
000180 80 66 5b 3c c3 83 72 3d 2e f7 fa 3d 5b 3e c2 bd
       0.013391137 0.05920769 0.12254177 -0.094845496
000190 a2 5a ea bd b2 5e 50 3e 1c c5 db 3c 6b 7c 10 3e
       -0.11443068 0.20348623 0.026827388 0.14109962
0001a0 b5 18 dd bd 1b 1f 24 3e 50 1d 3b 3e 6f 67 26 3e
       -0.10795728 0.16027491 0.182729 0.16250394
0001b0 62 e8 20 3e 98 de be 3d 44 1a 13 ba c9 cb 2d be
       0.15713647 0.093198 -0.0005611519 -0.16972269
0001c0 b7 94 4e be e6 12 b3 3d 5c 43 e5 bc 3c d7 c2 3d
       -0.20173918 0.08743839 -0.027986221 0.09513709
0001d0 76 f1 13 be 4d 9a f0 bd d1 3f 08 be c5 1a 54 3e
       -0.14447579 -0.117481805 -0.13305594 0.20713337
0001e0 59 48 43 be 20 c9 0e 3e 8f b2 2d be 75 a8 1d 3e
       -0.19070567 0.1394391 -0.16962646 0.15396293
0001f0 47 99 36 be bf 6c 15 3e 9e bc 06 3e c8 03 34 be
       -0.17831908 0.14592265 0.13157889 -0.17579567
000200 9b a9 56 bd 80 21 d2 3d 9b bf 5f bd 93 7f c1 3d
       -0.052407842 0.10260296 -0.05462609 0.09448161
000210 fa 0f fb 3d 30 76 62 bd 32 60 66 be ba 8a 21 3e
       0.12258907 -0.055288494 -0.22497633 0.15775576
000220 7e f5 30 bd 53 93 18 3e 9c 5e 07 bd 31 fd 3b 3e
       -0.04320287 0.1489995 -0.03304921 0.18358304
000230 5b 02 4d be f8 ec bf b9 c6 c8 19 3e 83 25 89 bd
       -0.2002043 -0.00036606914 0.15017995 -0.06696608
000240 9a 9b 71 3d 9e 86 5f bd 46 c5 25 be 34 d4 46 be
       0.058986284 -0.05457174 -0.16188535 -0.19416887
000250 e0 8c 32 3e 82 14 d9 3d 0d a2 b4 3d 18 59 40 be
       0.17436552 0.10599615 0.08819971 -0.18783987
000260 9e d4 b2 3d 36 26 8f 3e 11 29 29 3e 09 33 d8 bd
       0.0873196 0.2795884 0.16519572 -0.10556609
000270 0c 6d 2c 3d 34 73 10 be c6 98 a1 3d 0e f3 1e 3e
       0.042096183 -0.14106447 0.07890467 0.15522406
000280 fe 4c 99 bd d3 be 88 3e d3 d5 65 be 1e 31 1c 3e
       -0.07485388 0.26708087 -0.22444849 0.15253112
000290 6f 55 6f 3e f9 a4 44 be 67 02 27 be 6a b0 3b bd
       0.23372434 -0.19203557 -0.1630951 -0.04582254
0002a0 dd 7b 50 3e 38 ad 18 be 22 fb 62 3d 5a fc 14 3d
       0.2035975 -0.14909828 0.05541528 0.036373474
0002b0 e2 a9 f7 3d fc 87 25 bd 29 65 d8 3c c0 62 cf bc
       0.120929495 -0.040412888 0.026415424 -0.025315642
0002c0 46 1f 66 be 83 05 07 be 6b 4e 72 be 6a 86 40 3e
       -0.22472867 -0.13185696 -0.23662727 0.18801275
0002d0 fa ee 31 3e df 8e 66 bd b3 1a 04 3e 5e ca 89 3c
       0.17376319 -0.056288596 0.1290081 0.016820129
0002e0 c8 9f ae bd 0c a2 62 3d f7 07 2e 3e a2 a1 62 bd
       -0.085265696 0.05533032 0.16995226 -0.055329926
0002f0 5a 4b 67 bd 8a 3e 1f be e1 63 07 bc 35 9e a2 3d
       -0.056468345 -0.155512 -0.008263559 0.07940332
000300 60 91 3d 3e ac 97 9a bd a7 4d 2b be ca 34 fa bd
       0.18512487 -0.0754846 -0.16728841 -0.122171
000310 ad 18 1a be db 94 17 bd fe 61 ca bc b3 7a 24 be
       -0.15048476 -0.037007194 -0.02470493 -0.16062431
000320 c4 45 29 bc 7e 01 67 3e 42 b1 f1 bd ab f5 c8 bd
       -0.010331575 0.22559163 -0.11801387 -0.098124824
000330 7a e8 1e bd 15 f8 72 bc a0 fd 00 3c 0e f7 a0 bd
       -0.038795926 -0.014829655 0.007872969 -0.07859622
000340 c1 2b 81 3d 7f b4 06 3d 6e 25 31 3d 0e 42 4a be
       0.063071735 0.03288698 0.043248586 -0.1975176
000350 e7 56 26 be dc 0d 60 3d 08 28 50 bc a0 01 af 3b
       -0.16244088 0.054700717 -0.012704857 0.00534077
000360 f3 73 b4 bd 30 7a 79 3e fc 5d 42 3d d9 36 86 3d
       -0.08811178 0.24363017 0.04745291 0.0655343
000370 9b ee 93 bd 14 fa 11 3e fe fa 33 3e 59 3b 2b 3e
       -0.07223245 0.14255553 0.17576215 0.16721858
000380 7f dc 9b 3c 1c fd 0e be 54 c6 00 3c 89 52 d9 ba
       0.01902604 -0.13963741 0.007859785 -0.0016580384
000390 e8 54 09 39 5d 6f f1 bd bc 4a 64 3c 07 d6 2e bd
       0.00013096968 -0.11788819 0.013933834 -0.04268458
0003a0 8a cd 0f bb 11 23 ff 3d 86 e8 d2 3d 85 1a ad bd
       -0.002194258 0.1245786 0.102982566 -0.08452324
0003b0 c1 81 7d 3d a3 3e 7d bd 29 49 ce bd 3d 99 0e bd
       0.06189132 -0.061827313 -0.10072548 -0.03481411
0003c0 eb 96 a5 bd 99 2d c7 3c 7c cc ce 3d 98 f3 7d 3e
       -0.08085426 0.024313735 0.10097596 0.24799955
0003d0 58 1d 18 be d7 62 f7 bd 2e e9 a9 bd 3b a6 85 3d
       -0.14854944 -0.12079399 -0.082964286 0.065258466
0003e0 07 49 22 be 94 e8 e9 bd 5c 6e 4c be fe 44 51 be
       -0.1584817 -0.11421314 -0.19963974 -0.20436475
0003f0 90 72 4b 3e cc 36 23 be f1 2e 5d bd ed 93 49 be
       0.19867921 -0.15938872 -0.053999845 -0.19685335

rel_embeddings.weight f4 [14, 50]
000000 93 13 35 3c 10 07 33 be 97 eb 21 be 6e 32 25 be
       0.01105203 -0.17483163 -0.15812527 -0.16132519
000010 0f 02 05 3e 24 19 82 3e 63 33 61 3e a8 38 25 3e
       0.12989067 0.25409806 0.21992259 0.16134894
000020 e7 5c 0b 3d 12 14 31 3d e5 e5 70 3b 0f 09 2c 3e
       0.034024145 0.04323203 0.0036758122 0.1680033
000030 b5 fc 99 3e 2f ad 65 be f1 88 36 be 0f a8 85 be
       0.30075613 -0.22429346 -0.17825677 -0.2610478
000040 e4 ac 94 3e b1 39 73 be 2a 46 9c 3e 36 b2 17 3e
       0.29038155 -0.23752476 0.3052228 0.14814076
000050 b2 f8 94 bc c6 b1 9e 3e b8 16 fb bd e5 fe 4d be
       -0.018184993 0.30995005 -0.12260193 -0.20116766
000060 21 a8 69 be 48 86 f3 3d 77 66 84 be f8 3b 8e 3d
       -0.22818042 0.118908465 -0.25859424 0.06945032
000070 69 13 44 be d3 53 81 be 5c 96 3b be 7d f2 60 be
       -0.1914803 -0.25259265 -0.18319076 -0.21967502
000080 e2 be 20 be 21 00 cf bd 8f b4 50 3e bd dc 1a 3e
       -0.15697816 -0.101074465 0.20381378 0.15123267
000090 ae e9 69 3e dd 80 13 3e 10 14 1a be 3e 13 e5 bd
       0.22843048 0.14404626 -0.15046716 -0.11185311
0000a0 34 b9 f5 ba 00 63 68 3d de f1 64 be 85 f3 96 be
       -0.0018747211 0.05673504 -0.2235789 -0.29482666
0000b0 e5 b5 10 be 91 7e e1 3d 02 9b 96 3d 03 80 8f be
       -0.14131887 0.11010469 0.07353784 -0.28027353
0000c0 d4 99 47 be 3b 3a 94 3e 80 b2 16 be 80 d2 85 be
       -0.19492275 0.28950676 -0.1471653 -0.2613716
0000d0 66 7b c8 3d cb da cf 3d 0d 08 3a 3d a0 23 e9 3d
       0.097891614 0.10149153 0.045417834 0.11383748
0000e0 f3 a2 31 3e b9 15 23 be 5b bf bc bd b6 77 09 be
       0.17347316 -0.15926255 -0.09216186 -0.13424572
0000f0 46 fd 7f 3e 48 16 1a be da 43 d7 3d ac 8e 43 3e
       0.2499896 -0.15047562 0.105109885 0.19097394
000100 27 f7 5a be 70 c7 5b be 8f a4 92 3e 68 a1 3f bd
       -0.21383344 -0.21462798 0.28641173 -0.04678479
000110 c8 64 6d bd f0 19 52 3d 16 73 6c be f6 c3 76 3e
       -0.05795744 0.051294267 -0.23090777 0.2409819
000120 39 94 33 be c9 07 1f be 39 00 15 3e 6f 25 40 3e
       -0.17537011 -0.15530314 0.14550866 0.1876428
000130 69 69 61 3e 40 e0 92 3d 49 de 25 be f1 e7 35 be
       0.22012867 0.071716785 -0.16198076 -0.1776426
000140 ae 1c 95 be 09 89 ef bd fd 98 49 be 5d 1c 83 bc
       -0.29123443 -0.11696059 -0.19687267 -0.016004736
000150 bc 88 0b be 70 3a 8f be fe bd 01 be 13 6f ca 3d
       -0.13626379 -0.27974272 -0.12670133 0.09884467
000160 11 b2 38 bd b3 38 0e bd 2c 17 14 be 2e 2f 5c be
       -0.045091692 -0.03472204 -0.14461964 -0.21502373
000170 15 c1 81 3d 5e c5 8c 3c 9a 9d 5a 3e f6 f5 ee 3d
       0.063356556 0.017183956 0.21349183 0.11668007
000180 c0 28 c2 3d c1 ac f5 bd 54 07 4f 3d 83 71 1f be
       0.09480429 -0.11995841 0.050544098 -0.15570645
000190 56 34 11 3e 23 e1 0e be fc c7 88 be c7 e7 87 3e
       0.14180121 -0.1395307 -0.26715076 0.2654402
0001a0 db 19 13 3e 3c 56 18 3e a5 62 8d 3e 90 6e 1e 3e
       0.14365332 0.14876646 0.27614322 0.15471864
0001b0 8e 88 9f bd 5b c1 82 3d f7 16 ec 3d 7d 1d 1d 3e
       -0.077897176 0.06384536 0.11527818 0.1534328
0001c0 3f 22 06 3d 1c 88 1d 3e 31 c6 2d bd 83 e4 12 bc
       0.032747503 0.15383953 -0.04242534 -0.008965614
0001d0 fc ef 95 3e c2 c7 e2 3d 98 50 4d 3e 8f eb ad 3d
       0.29284656 0.11073257 0.20050275 0.08492195
0001e0 2d 63 12 3e 89 98 a8 3d 60 bb 0b 3e ff eb be bc
       0.14295645 0.08232219 0.13645697 -0.023305891
0001f0 b4 4b de 3d 02 1d 84 3e 86 d6 85 3e b3 96 03 3d
       0.10854283 0.2580338 0.2614023 0.03212614
000200 d8 fc 32 3d af da 77 be 23 54 d2 3d 5e ff e9 bc
       0.04369816 -0.24204515 0.10269954 -0.028564151
000210 58 55 bc 3d 5e 25 97 3e 12 83 2b bd 87 c6 26 3e
       0.091959655 0.29520696 -0.041873045 0.1628667
000220 67 53 d8 bd cb fe 99 be 34 e3 96 3e 60 17 1f 3e
       -0.10562783 -0.30077204 0.29470217 0.1553626
000230 ba 2c 91 3e b0 37 80 be e1 12 95 3e 22 ef f2 bc
       0.28354436 -0.25042486 0.29115966 -0.029655043
000240 4a 7b 63 3e e3 d0 16 3e 88 17 00 3e db af 8a be
       0.22215 0.14728121 0.12508976 -0.27087292
000250 ef a3 07 3e ad 85 89 be ed d6 71 be a6 39 22 3c
       0.1324613 -0.268598 -0.23617144 0.00990144
000260 8e ce fe bc 8d bd 37 3d 4b d6 89 3e 89 b2 2a 3e
       -0.031104352 0.044858504 0.26921305 0.16669668
000270 a3 f4 1f 3e 25 9e 90 3e 4e 12 0b 3e e0 c7 1f be
       0.15620665 0.28245655 0.13581201 -0.1560359
000280 1e 9d 5c 3e 6a 62 82 bd be 48 c2 3d 75 35 64 be
       0.2154431 -0.06366427 0.09486531 -0.22286017
000290 d5 4e a9 bd 01 cc 18 3e 70 ad 21 be 36 40 08 be
       -0.08266989 0.14921571 -0.15788817 -0.13305745
0002a0 71 ef 55 3e 7c 24 a9 bd 6f b7 84 3e c7 8e e3 3d
       0.20892121 -0.08258912 0.259212 0.11111217
0002b0 fd 83 2d bd e5 0c 2c bd fe 5b 67 bd 59 72 8f be
       -0.042362202 -0.042004485 -0.056484215 -0.28016928
0002c0 e4 8d 78 be 94 ae cb 3d 58 30 99 bd 82 d0 7d 3e
       -0.24272877 0.099454075 -0.07479924 0.2478657
0002d0 14 bb f8 3d 7d e0 42 be aa ac cf bd 85 bc 63 bd
       0.12145057 -0.19030948 -0.10140355 -0.055599708
0002e0 c0 18 fe bd bb ca 16 be 7c f4 28 3d f8 c5 83 3e
       -0.124070644 -0.14725773 0.041248783 0.25736976
0002f0 74 7e 4e bd 5a 52 80 be 7f 21 4c 3e 9d cf 81 be
       -0.050413564 -0.2506283 0.19934653 -0.2535371
000300 9b a4 80 bd 7c 30 96 be 11 f8 cb 3d f5 d2 98 3e
       -0.06281396 -0.29333866 0.09959424 0.29848447
000310 71 c1 e6 3d 50 c8 67 3d 1f c5 cc bd 67 e2 89 be
       0.11267365 0.056587517 -0.09998535 -0.26930544
000320 70 45 62 3e 03 fd 10 3d 48 2c 65 3e 99 9f c9 3d
       0.22096801 0.03539754 0.22380173 0.09844894
000330 30 70 7f 3e 1c c7 84 be 1f 7e c9 bc 04 2a d3 3d
       0.2494514 -0.25933158 -0.024596272 0.10310748
000340 64 8f a7 3e ca 6e 4f 3e 1e c4 7e 3e 65 eb 90 3e
       0.32726586 0.20257106 0.248795 0.28304592
000350 35 ce 64 3e 12 fc a4 3e 20 76 21 3e 05 20 d4 bd
       0.22344287 0.32223564 0.15767717 -0.1035767
000360 04 d8 c0 3d ba e5 a8 bd 0b 51 ec 3d 69 6a c4 3d
       0.09416202 -0.08246942 0.11538895 0.095906086
000370 c0 72 8e 3d a6 56 f2 bc 55 61 4a 3d 31 88 61 be
       0.069554806 -0.029582333 0.04940923 -0.22024609
000380 fe 78 b1 be 00 74 85 be ce ca 83 bd a4 96 c3 bd
       -0.34662622 -0.26065063 -0.06435166 -0.09550217
000390 4b 9d 74 be c0 eb 1a 3e 18 a4 75 3e 12 c1 85 3e
       -0.23888128 0.15128994 0.23988378 0.26123863
0003a0 d0 2e 82 bd 77 8d f2 3d de 8d 65 be e5 d3 2c be
       -0.06356585 0.118433885 -0.224174 -0.16877706
0003b0 3f 64 86 3d 71 ad b4 bd 2f 50 e0 bd fd 53 80 3e
       0.06562089 -0.08822144 -0.10952794 0.25064078
0003c0 2a f1 d5 3d f0 eb 7b bc 43 e5 14 3d b2 84 88 3d
       0.10446389 -0.015376076 0.036351454 0.066659346
0003d0 33 26 3a 3e c0 11 82 3e 11 78 de 3d 3f c4 b4 3d
       0.18178634 0.25404167 0.108627446 0.088264935
0003e0 19 28 58 bd f2 49 35 bd b0 7e 66 be 70 67 64 be
       -0.052772615 -0.044259973 -0.22509265 -0.22305083
0003f0 fe 85 a3 3d 25 4f 9d bb 97 27 51 bd c8 7d 9d bd
       0.07984541 -0.0048006945 -0.051063146 -0.076900065
