checkpoint/TransE-699.ckpt (torch, 21287 bytes, 2 tensors)

ent_embeddings.weight f4 [87, 50]
0.092440575 -0.10456801 0.0061888658 -0.010762748 0.13287468 0.10510908 0.22459227 0.042606503
-0.14363965 0.11649455 -0.0935019 0.04301758 -0.082217865 -0.065288834 0.2252275 0.11802457
-0.01682101 -0.017256225 -0.11311952 0.09462247 0.024556933 -0.14999841 -0.1041743 0.09797692
0.070891805 -0.15639175 0.06197721 0.05896445 -0.13722719 0.15168606 0.17196687 0.116025515
-0.15629695 -0.062554695 -0.099229135 0.08826003 0.018493729 -0.19085152 0.0676773 0.04934419
0.022889057 0.10295073 0.02268043 -0.055290684 -0.16598713 -0.19432901 -0.056467842 -0.02678991
0.17202738 -0.06951393 0.08054946 0.11161574 0.30623507 0.05788982 -0.09740244 0.02667511
-0.11496479 -0.13585529 -0.08364631 0.12843755 -0.015920036 -0.03007871 0.13048005 0.07112224
-0.0036080107 0.08230164 -0.15918262 -0.029147448 0.09542927 0.04362357 0.19835979 0.17705487
-0.029725969 0.13201988 0.030247912 -0.17358579 -0.122662 0.114446774 -0.002404975 -0.39222118
-0.030853426 -0.054295104 -0.12553696 0.11591786 0.06645205 0.22255096 -0.058924064 0.30849984
-0.09125961 -0.015757946 -0.107753664 0.12268091 -0.12577504 -0.15695944 -0.019464819 0.09045842
0.011391137 0.059207685 0.124541774 -0.0988455 -0.11443068 0.20348623 0.026827388 0.14109962
-0.10795728 0.16027491 0.182729 0.16250394 0.15713647 0.093198 -0.0005611519 -0.16972269
-0.20173918 0.08743839 -0.027986221 0.09513709 -0.14447579 -0.117481805 -0.13305594 0.20713337
-0.19070567 0.1394391 -0.16962646 0.15396293 -0.17831908 0.14592265 0.13157889 -0.17579567
-0.052407842 0.10260296 -0.05462609 0.09448161 0.12258907 -0.055288494 -0.22497633 0.15775576
-0.04320287 0.1489995 -0.03304921 0.18358304 -0.2002043 -0.00036606914 0.15017995 -0.06696608
0.058986284 -0.05457174 -0.16188535 -0.19416887 0.17436552 0.10599615 0.09119971 -0.18683986
0.0883196 0.2825884 0.16219571 -0.106566094 0.037096184 -0.14006446 0.079904675 0.15822406
-0.07385388 0.27008086 -0.22344849 0.15153112 0.23672435 -0.18903556 -0.1620951 -0.04282254
0.19859749 -0.14809828 0.05441528 0.035373475 0.11992949 -0.043412887 0.025415424 -0.026315643
-0.22572868 -0.13285697 -0.23762727 0.19301276 0.16876318 -0.055288598 0.1280081 0.01782013
-0.088265695 0.054330323 0.17295226 -0.054329924 -0.059468344 -0.154512 -0.0052635586 0.07840332
0.18212487 -0.0744846 -0.1662884 -0.121171 -0.14948475 -0.036007196 -0.02770493 -0.1576243
-0.006331574 0.22559163 -0.11801385 -0.10012482 -0.04879592 -0.020829655 0.007872969 -0.08259623
0.05507174 0.02888698 0.041248597 -0.20351762 -0.16444089 0.040700737 -0.016704857 0.00734077
-0.09211179 0.24563017 0.045452915 0.061534304 -0.07023245 0.13655552 0.17176214 0.17121859
0.013026038 -0.14363742 0.0038597845 -0.0036580386 0.00613097 -0.10388817 0.009933833 -0.04068458
-0.006194258 0.1285786 0.102982566 -0.082523234 0.063891314 -0.057827316 -0.096725486 -0.036814112
-0.07485425 0.030313736 0.09697595 0.24999954 -0.15654945 -0.126794 -0.08496428 0.061258458
-0.15248169 -0.10821312 -0.19963974 -0.20436475 0.19867921 -0.15938872 -0.053999845 -0.19685335
00000000: 7c51 bd3d c127 d6bd f8cb ca3b 3d56 30bc
00000010: 4d10 083e 6e43 d73d 84fb 653e 2884 2e3d
00000020: 4616 13be b294 ee3d ed7d bfbd 3433 303d
00000030: d761 a8bd 27b6 85bd 0aa2 663e deb6 f13d
00000040: 37cc 89bc ed5c 8dbc 35ab e7bd 6dc9 c13d
00000050: 9f2b c93c 2f99 19be 5659 d5bd 20a8 c83d
00000060: b92f 913d 2925 20be d1db 7d3d b584 713d
00000070: 4985 0cbe 9753 1b3e 1518 303e c99e ed3d
00000080: 4f0c 20be ad1c 80bd a538 cbbd adc1 b43d
00000090: 2980 973c 956e 43be 659a 8a3d 221d 4a3d
000000a0: d581 bb3c d5d7 d23d 4fcc b93c 7c78 62bd
000000b0: 88f8 29be 2ffe 46be d34a 67bd 8376 dbbc
000000c0: f227 303e 525d 8ebd 1ef7 a43d cb96 e43d
000000d0: d8ca 9c3e e01d 6d3d ee7a c7bd c385 da3c
000000e0: a972 ebbd a61d 0bbe c24e abbd 2285 033e
000000f0: bc6a 82bc a067 f6bc 909c 053e 89a8 913d
00000100: 6074 6cbb c38d a83d c500 23be a1c6 eebc
00000110: 6c70 c33d a1ae 323d d41e 4b3e df4d 353e
00000120: e083 f3bc 3830 073e 78ca f73c 79c0 31be
00000130: 3736 fbbd 1263 ea3d c99c 1dbb 37d1 c8be
00000140: 53c0 fcbc 8b64 5ebd c38c 00be 5866 ed3d
00000150: 0318 883d 66e4 633e 5c5a 71bd b1f3 9d3e
00000160: 52e6 babd cf16 81bc f4ad dcbd 2140 fb3d
00000170: 2ccb 00be fab9 20be af74 9fbc 4442 b93d
00000180: e4a1 3a3c c283 723d c20f ff3d 826f cabd
00000190: a25a eabd b25e 503e 1cc5 db3c 6b7c 103e
000001a0: b518 ddbd 1b1f 243e 501d 3b3e 6f67 263e
000001b0: 62e8 203e 98de be3d 441a 13ba c9cb 2dbe
000001c0: b794 4ebe e612 b33d 5c43 e5bc 3cd7 c23d
000001d0: 76f1 13be 4d9a f0bd d13f 08be c51a 543e
000001e0: 5948 43be 20c9 0e3e 8fb2 2dbe 75a8 1d3e
000001f0: 4799 36be bf6c 153e 9ebc 063e c803 34be
00000200: 9ba9 56bd 8021 d23d 9bbf 5fbd 937f c13d
00000210: fa0f fb3d 3076 62bd 3260 66be ba8a 213e
00000220: 7ef5 30bd 5393 183e 9c5e 07bd 31fd 3b3e
00000230: 5b02 4dbe f8ec bfb9 c6c8 193e 8325 89bd
00000240: 9a9b 713d 9e86 5fbd 46c5 25be 34d4 46be
00000250: e08c 323e 8214 d93d eac6 ba3d f352 3fbe
00000260: e8e0 b43d 6daf 903e a216 263e 533f dabd
00000270: 2bf2 173d 0f6d 0fbe 10a5 a33d 7d05 223e
00000280: b440 97bd 0a48 8a3e aecf 64be f92a 1b3e
00000290: de67 723e 8a92 41be 42fc 25be b066 2fbd
000002a0: 245d 4b3e 13a7 17be 8fe2 5e3d c7e3 103d
000002b0: 989d f53d b6d1 31bd 0234 d03c e793 d7bc
000002c0: 6b25 67be a80b 08be 9054 73be 23a5 453e
000002d0: 41d0 2c3e 4c76 62bd 8e14 033e 85fb 913c
000002e0: a5c4 b4bd 7989 5e3d 661a 313e 0e89 5ebd
000002f0: 1495 73bd 6538 1ebe ee79 acbb eb91 a03d
00000300: f17e 3a3e 628b 98bd 8247 2abe 8028 f8bd
00000310: 8812 19be 487c 13bd 73f5 e2bc 4468 21be
00000320: 1879 cfbb 7e01 673e 3fb1 f1bd 3e0e cdbd
00000330: 3bde 47bd f4a2 aabc a0fd 003c 3628 a9bd
00000340: e892 613d 63a4 ec3c 4af4 283d ec66 50be
00000350: 3163 28be d1b5 263d a0d8 88bc d88a f03b
00000360: 1ba5 bcbd 7a86 7b3e d62c 3a3d 650b 7c3d
00000370: 08d6 8fbd 36d5 0b3e 6ae2 2f3e ed53 2f3e
00000380: 2a6b 553c b015 13be 70f4 7c3b b4bb 6fbb
00000390: 4ee6 c83b 52c3 d4bd 84c1 223c e0a4 26bd
000003a0: 34f9 cabb 1caa 033e 86e8 d23d f101 a9bd
000003b0: 73d9 823d 56dc 6cbd 0318 c6bd 65ca 16bd
000003c0: 2f4d 99bd 8354 f83c 549b c63d e1ff 7f3e
000003d0: 804e 20be 49d6 01be c101 aebd 26ea 7a3d
000003e0: 2924 1cbe d79e ddbd 5c6e 4cbe fe44 51be
000003f0: 9072 4b3e cc36 23be f12e 5dbd ed93 49be

rel_embeddings.weight f4 [14, 50]
0.0130520305 -0.17483163 -0.15812527 -0.16132519 0.12989067 0.25409806 0.21992259 0.15934893
0.034024145 0.04523203 0.0036758122 0.1680033 0.30075613 -0.22629346 -0.17625676 -0.2610478
0.29038155 -0.23952477 0.3052228 0.14814076 -0.016184993 0.31195006 -0.12260193 -0.20116766
-0.22818042 0.118908465 -0.25859424 0.06745032 -0.1914803 -0.25259265 -0.18319076 -0.21967502
-0.15697816 -0.101074465 0.20381378 0.14923267 0.22843048 0.14404626 -0.15246716 -0.11185311
-0.0018747211 0.05873504 -0.2235789 -0.29482666 -0.14131887 0.112104684 0.071537845 -0.28027353
-0.19292274 0.28950676 -0.1451653 -0.2613716 0.09389162 0.09949154 0.043417834 0.11583748
0.17147316 -0.15926255 -0.09616185 -0.13624573 0.2559896 -0.15047562 0.10110989 0.19097394
-0.21383344 -0.21262798 0.28441173 -0.05078479 -0.05995744 0.06129427 -0.22890776 0.2409819
-0.18337013 -0.14930312 0.14950867 0.1876428 0.22012867 0.071716785 -0.15998076 -0.16964258
-0.29123443 -0.12296058 -0.19687267 -0.014004735 -0.1422638 -0.28174272 -0.12470133 0.10284466
-0.04109169 -0.042722043 -0.14861965 -0.21502373 0.061356556 0.019183956 0.20949182 0.11668007
0.09280429 -0.11995841 0.0565441 -0.15570645 0.1398012 -0.14553072 -0.26715076 0.2674402
0.14565332 0.14076644 0.27614322 0.15471864 -0.077897176 0.06184536 0.11927817 0.15743281
0.036747504 0.15383953 -0.04242534 -0.010965615 0.29284656 0.10873257 0.20050275 0.086921945
0.14095645 0.078322195 0.13245696 -0.029305892 0.11054283 0.2580338 0.2614023 0.03212614
0.045698162 -0.24404515 0.106699534 -0.02456415 0.09595965 0.29520696 -0.047873046 0.15686668
-0.10362783 -0.30077204 0.29470217 0.15736261 0.28354436 -0.25242487 0.29115966 -0.035655044
0.22615 0.14728121 0.12508976 -0.27087292 0.1384613 -0.268598 -0.23817144 0.007901439
-0.031104352 0.042858504 0.26721305 0.16469668 0.15620665 0.28245655 0.13381201 -0.1540359
0.2154431 -0.06566427 0.09286531 -0.22286017 -0.08266989 0.14921571 -0.15788817 -0.13305745
0.20892121 -0.08258912 0.259212 0.10911217 -0.042362202 -0.042004485 -0.056484215 -0.28016928
-0.24072877 0.10145407 -0.076799236 0.2478657 0.12145057 -0.19230948 -0.10140355 -0.053599708
-0.124070644 -0.14725773 0.043248784 0.25736976 -0.050413564 -0.2506283 0.19734652 -0.2535371
-0.06281396 -0.29333866 0.09959424 0.29848447 0.11267365 0.056587517 -0.09998535 -0.27130544
0.22096801 0.045397542 0.23780176 0.100448936 0.2534514 -0.25933158 -0.026596272 0.11110747
0.32526585 0.20457107 0.254795 0.28504592 0.22544287 0.32223564 0.15967718 -0.105576694
0.09616201 -0.08646941 0.14338897 0.10390607 0.08955477 -0.031582333 0.04540923 -0.23024611
-0.34462622 -0.25865063 -0.074351646 -0.10550215 -0.24288128 0.15928996 0.2498838 0.25523862
-0.06956584 0.124433875 -0.226174 -0.16677706 0.069620885 -0.090221435 -0.111527935 0.24464077
0.10246389 -0.027376078 0.048351455 0.06465935 0.18978636 0.25804168 0.120627426 0.09626492
-0.046772614 -0.054259975 -0.22509265 -0.22305083 0.07984541 -0.0048006945 -0.051063146 -0.076900065
00000000: 2fd8 553c 1007 33be 97eb 21be 6e32 25be
00000010: 0f02 053e 2419 823e 6333 613e 5e2c 233e
00000020: e75c 0b3d 3945 393d e5e5 703b 0f09 2c3e
00000030: b5fc 993e 79b9 67be a77c 34be 0fa8 85be
00000040: e4ac 943e fb45 75be 2a46 9c3e 36b2 173e
00000050: 6496 84bc ebb7 9f3e b816 fbbd e5fe 4dbe
00000060: 21a8 69be 4886 f33d 7766 84be 6523 8a3d
00000070: 6913 44be d353 81be 5c96 3bbe 7df2 60be
00000080: e2be 20be 2100 cfbd 8fb4 503e 73d0 183e
00000090: aee9 693e dd80 133e 5a20 1cbe 3e13 e5bd
000000a0: 34b9 f5ba 2794 703d def1 64be 85f3 96be
000000b0: e5b5 10be 2497 e53d 6f82 923d 0380 8fbe
000000c0: 8a8d 45be 3b3a 943e 36a6 14be 80d2 85be
000000d0: 404a c03d 38c2 cb3d e6d6 313d 333c ed3d
000000e0: a996 2f3e b915 23be 81f0 c4bd 0084 0bbe
000000f0: 1211 833e 4816 1abe b412 cf3d ac8e 433e
00000100: 27f7 5abe 26bb 59be 6a9e 913e b603 50bd
00000110: ef95 75bd b30f 7b3d cc66 6abe f6c3 763e
00000120: 61c5 3bbe ebe2 18be cd18 193e 6f25 403e
00000130: 6969 613e 40e0 923d ffd1 23be c9b6 2dbe
00000140: ae1c 95be c2d2 fbbd fd98 49be 1e74 65bc
00000150: 9aad 11be 9540 90be 6963 ffbd 39a0 d23d
00000160: c34f 28bd 4ffd 2ebd c02f 18be 2e2f 5cbe
00000170: 0351 7b3d ac27 9d3c 0685 563e f6f5 ee3d
00000180: 2d10 be3d c1ac f5bd c99a 673d 8371 1fbe
00000190: 0c28 0f3e 0106 15be fcc7 88be eced 883e
000001a0: 2526 153e 1425 103e a562 8d3e 906e 1e3e
000001b0: 8e88 9fbd 8f51 7d3d 1d48 f43d 1136 213e
000001c0: 8d84 163d 1c88 1d3e 31c6 2dbd 1fa9 33bc
000001d0: fcef 953e 2faf de3d 9850 4d3e 2204 b23d
000001e0: e356 103e 6367 a03d cca2 073e e912 f0bc
000001f0: 4764 e23d 021d 843e 86d6 853e b396 033d
00000200: ff2d 3b3d f9e6 79be 4985 da3d c23a c9bc
00000210: 7e86 c43d 5e25 973e 8716 44bd a9a1 203e
00000220: d43a d4bd cbfe 99be 34e3 963e aa23 213e
00000230: ba2c 913e d53d 81be e112 953e 060b 12bd
00000240: de93 673e e3d0 163e 8817 003e dbaf 8abe
00000250: cdc8 0d3e ad85 89be 37e3 73be 0a75 013c
00000260: 8ece febc 668c 2f3d 26d0 883e 3fa6 283e
00000270: a3f4 1f3e 259e 903e 0406 093e 96bb 1dbe
00000280: 1e9d 5c3e fd7a 86bd 2b30 be3d 7535 64be
00000290: d54e a9bd 01cc 183e 70ad 21be 3640 08be
000002a0: 71ef 553e 7c24 a9bd 6fb7 843e 3476 df3d
000002b0: fd83 2dbd e50c 2cbd fe5b 67bd 5972 8fbe
000002c0: 9a81 76be 27c7 cf3d eb48 9dbd 82d0 7d3e
000002d0: 14bb f83d c7ec 44be aaac cfbd 5e8b 5bbd
000002e0: c018 febd bbca 16be a325 313d f8c5 833e
000002f0: 747e 4ebd 5a52 80be 3515 4a3e 9dcf 81be
00000300: 9ba4 80bd 7c30 96be 11f8 cb3d f5d2 983e
00000310: 71c1 e63d 50c8 673d 1fc5 ccbd 8ce8 8abe
00000320: 7045 623e c6f2 393d 4e82 733e 2cb8 cd3d
00000330: 62c4 813e 1cc7 84be 6de0 d9bc 508c e33d
00000340: 3f89 a63e 147b 513e 7e74 823e 8af1 913e
00000350: 7fda 663e 12fc a43e 6a82 233e 9838 d8bd
00000360: 97f0 c43d e016 b1bd 8fd4 123e b5cc d43d
00000370: 7e68 b73d 7a5c 01bd 07ff 393d a3c5 6bbe
00000380: d972 b0be db6d 84be ad45 98bd 8311 d8bd
00000390: dfb5 78be e81c 233e 8ae1 7f3e a3ae 823e
000003a0: 8978 8ebd 30d7 fe3d 289a 67be 9bc7 2abe
000003b0: 6595 8e3d 04c6 b8bd c268 e4bd 1c83 7a3e
000003c0: 97d8 d13d cc43 e0bc 2d0c 463d 1f6c 843d
000003d0: 5b57 423e 0a1e 843e 830b f73d 8b26 c53d
000003e0: a494 3fbd b53f 5ebd b07e 66be 7067 64be
000003f0: fe85 a33d 254f 9dbb 9727 51bd c87d 9dbd
