checkpoint/TransE-899.ckpt (torch, 21287 bytes, 2 tensors)

ent_embeddings.weight f4 [87, 50]
0.09144057 -0.105568014 0.0051888656 -0.0117627485 0.13187468 0.10410908 0.22559227 0.041606504
-0.14263965 0.11549455 -0.0925019 0.042017583 -0.08121786 -0.06428883 0.2242275 0.11702457
-0.01582101 -0.016256224 -0.11411952 0.09562247 0.023556933 -0.15099841 -0.1031743 0.09697692
0.0698918 -0.15539175 0.060977213 0.05796445 -0.1382272 0.15068606 0.17096686 0.11702552
-0.15729696 -0.061554696 -0.10022914 0.08726003 0.017493729 -0.19185153 0.066677295 0.04834419
0.021889057 0.10195073 0.02368043 -0.054290686 -0.16498713 -0.193329 -0.055467844 -0.025789909
0.17102738 -0.06851393 0.08054946 0.11161574 0.30623507 0.05588982 -0.09740244 0.02667511
-0.11496479 -0.13585529 -0.08364631 0.12843755 -0.015920036 -0.03207871 0.13048005 0.07112224
-0.005608011 0.08230164 -0.15918262 -0.029147448 0.09542927 0.04362357 0.19835979 0.17705487
-0.027725969 0.13201988 0.030247912 -0.17158578 -0.122662 0.11644677 -0.002404975 -0.39222118
-0.030853426 -0.054295104 -0.12553696 0.11791786 0.06645205 0.22055095 -0.058924064 0.30849984
-0.09325961 -0.015757946 -0.107753664 0.12268091 -0.12577504 -0.15695944 -0.019464819 0.09045842
0.013391137 0.059207685 0.124541774 -0.0988455 -0.11443068 0.20348623 0.026827388 0.14109962
-0.10795728 0.16027491 0.182729 0.16250394 0.15713647 0.093198 -0.0005611519 -0.16972269
-0.20173918 0.08743839 -0.027986221 0.09513709 -0.14447579 -0.117481805 -0.13305594 0.20713337
-0.19070567 0.1394391 -0.16962646 0.15396293 -0.17831908 0.14592265 0.13157889 -0.17579567
-0.052407842 0.10260296 -0.05462609 0.09448161 0.12258907 -0.055288494 -0.22497633 0.15775576
-0.04320287 0.1489995 -0.03304921 0.18358304 -0.2002043 -0.00036606914 0.15017995 -0.06696608
0.058986284 -0.05457174 -0.16188535 -0.19416887 0.17436552 0.10599615 0.09019971 -0.18783987
0.0873196 0.28358838 0.16519572 -0.10556609 0.03609618 -0.14106447 0.07890467 0.15922406
-0.07485388 0.27108088 -0.22444849 0.15053111 0.23772435 -0.18803556 -0.1630951 -0.041822538
0.19759749 -0.14909828 0.051415283 0.032373477 0.120929495 -0.04241289 0.026415424 -0.025315642
-0.22472867 -0.13385697 -0.23862727 0.19401276 0.16576317 -0.056288596 0.1290081 0.02082013
-0.08926569 0.05533032 0.17595227 -0.055329923 -0.060468342 -0.155512 -0.0062635588 0.07940332
0.18312487 -0.0754846 -0.16728841 -0.122171 -0.15048476 -0.035007197 -0.02470493 -0.1566243
-0.0033315737 0.23059164 -0.12501384 -0.101124816 -0.053795923 -0.025829656 0.01487297 -0.081596226
0.04407175 0.02788698 0.040248603 -0.20851763 -0.15944088 0.035700746 -0.017704858 0.012340771
-0.095111795 0.24663018 0.044452917 0.0625343 -0.06523244 0.13155551 0.17076214 0.1802186
0.010026038 -0.14063741 0.006859785 -0.0046580387 0.011130971 -0.09888816 0.008933833 -0.035684578
-0.0071942583 0.13157861 0.105982564 -0.08352323 0.06289131 -0.064827316 -0.08572549 -0.031814117
-0.06785423 0.03531373 0.097975954 0.25299954 -0.15754946 -0.125794 -0.08396429 0.06025846
-0.15148169 -0.10121311 -0.19963974 -0.20436475 0.19867921 -0.15938872 -0.053999845 -0.19685335
00000000: 3245 bb3d 0b34 d8bd 5c07 aa3b 8bb8 40bc
00000010: 280a 073e 2437 d53d a901 673e 956b 2a3d
00000020: 2110 12be 6888 ec3d a371 bdbd a11a 2c3d
00000030: 8d55 a6bd dda9 83bd e59b 653e 94aa ef3d
00000040: 109b 81bc c62b 85bc 7fb7 e9bd b7d5 c33d
00000050: 78fa c03c 549f 1abe 0c4d d3bd d69b c63d
00000060: 6f23 8f3d 041f 1fbe 3ec3 793d 226c 6d3d
00000070: 6e8b 0dbe 724d 1a3e f011 2f3e 13ab ef3d
00000080: 7412 21be c720 7cbd ef44 cdbd 63b5 b23d
00000090: 024f 8f3c ba74 44be 1b8e 883d 8f04 463d
000000a0: ae50 b33c 8bcb d03d 76fd c13c e95f 5ebd
000000b0: 63f2 28be 0af8 45be 4032 63bd 5c45 d3bc
000000c0: cd21 2f3e 0851 8cbd 1ef7 a43d cb96 e43d
000000d0: d8ca 9c3e b9ec 643d ee7a c7bd c385 da3c
000000e0: a972 ebbd a61d 0bbe c24e abbd 2285 033e
000000f0: bc6a 82bc f764 03bd 909c 053e 89a8 913d
00000100: 68c3 b7bb c38d a83d c500 23be a1c6 eebc
00000110: 6c70 c33d a1ae 323d d41e 4b3e df4d 353e
00000120: 9221 e3bc 3830 073e 78ca f73c 2fb4 2fbe
00000130: 3736 fbbd a57b ee3d c99c 1dbb 37d1 c8be
00000140: 53c0 fcbc 8b64 5ebd c38c 00be eb7e f13d
00000150: 0318 883d 1cd8 613e 5c5a 71bd b1f3 9d3e
00000160: e5fe bebd cf16 81bc f4ad dcbd 2140 fb3d
00000170: 2ccb 00be fab9 20be af74 9fbc 4442 b93d
00000180: 8066 5b3c c283 723d c20f ff3d 826f cabd
00000190: a25a eabd b25e 503e 1cc5 db3c 6b7c 103e
000001a0: b518 ddbd 1b1f 243e 501d 3b3e 6f67 263e
000001b0: 62e8 203e 98de be3d 441a 13ba c9cb 2dbe
000001c0: b794 4ebe e612 b33d 5c43 e5bc 3cd7 c23d
000001d0: 76f1 13be 4d9a f0bd d13f 08be c51a 543e
000001e0: 5948 43be 20c9 0e3e 8fb2 2dbe 75a8 1d3e
000001f0: 4799 36be bf6c 153e 9ebc 063e c803 34be
00000200: 9ba9 56bd 8021 d23d 9bbf 5fbd 937f c13d
00000210: fa0f fb3d 3076 62bd 3260 66be ba8a 213e
00000220: 7ef5 30bd 5393 183e 9c5e 07bd 31fd 3b3e
00000230: 5b02 4dbe f8ec bfb9 c6c8 193e 8325 89bd
00000240: 9a9b 713d 9e86 5fbd 46c5 25be 34d4 46be
00000250: e08c 323e 8214 d93d a0ba b83d 1859 40be
00000260: 9ed4 b23d 7f32 913e 1129 293e 0933 d8bd
00000270: 97d9 133d 3473 10be c698 a13d a20b 233e
00000280: fe4c 99bd 1dcb 8a3e d3d5 65be d424 1a3e
00000290: 036e 733e 658c 40be 6702 27be 1c4e 2bbd
000002a0: ff56 4a3e 38ad 18be d598 523d 0d9a 043d
000002b0: e2a9 f73d 23b9 2dbd 2965 d83c c062 cfbc
000002c0: 461f 66be cd11 09be b55a 74be 48ab 463e
000002d0: d2bd 293e df8e 66bd b31a 043e fa8e aa3c
000002e0: eed0 b6bd 0ca2 623d d52c 343e a1a1 62bd
000002f0: a7ad 77bd 8a3e 1fbe 8a3e cdbb 359e a23d
00000300: 1685 3b3e ac97 9abd a74d 2bbe ca34 fabd
00000310: ad18 1abe b563 0fbd fe61 cabc 1f62 20be
00000320: 8856 5abb 3720 6c3e a103 00be 871a cfbd
00000330: 1d59 5cbd b798 d3bc c2ad 733c ec1b a7bd
00000340: 9484 343d 3c73 e43c b8db 243d a585 55be
00000350: 7844 23be f23a 123d c709 91bc f230 4a3c
00000360: f9c9 c2bd 9f8c 7c3e 4314 363d fc11 803d
00000370: 9698 85bd 7db6 063e 45dc 2e3e 3a8b 383e
00000380: 4044 243c 4103 10be 0cc8 e03b 76a2 98bb
00000390: ad5e 363c e085 cabd 365f 123c fe29 12bd
000003a0: d0bd ebbb 8bbc 063e 630d d93d 3a0e abbd
000003b0: 29cd 803d 2fc4 84bd d890 afbd 854f 02bd
000003c0: 29f7 8abd 21a5 103d 9ea7 c83d 2889 813e
000003d0: a554 21be 24d0 00be 78f5 abbd 93d1 763d
000003e0: 041e 1bbe d248 cfbd 5c6e 4cbe fe44 51be
000003f0: 9072 4b3e cc36 23be f12e 5dbd ed93 49be

rel_embeddings.weight f4 [14, 50]
0.015052031 -0.17483163 -0.15812527 -0.16132519 0.13189067 0.25409806 0.21992259 0.15734893
0.034024145 0.04523203 0.0036758122 0.1680033 0.30075613 -0.22629346 -0.17425676 -0.2610478
0.29038155 -0.23952477 0.3052228 0.14814076 -0.014184993 0.31195006 -0.12260193 -0.20116766
-0.22818042 0.118908465 -0.25859424 0.06745032 -0.1914803 -0.25259265 -0.18319076 -0.21967502
-0.15697816 -0.101074465 0.20581378 0.14723267 0.22843048 0.14404626 -0.15246716 -0.113853104
-0.0018747211 0.05873504 -0.2235789 -0.29482666 -0.14331888 0.11410468 0.071537845 -0.28227353
-0.19292274 0.28950676 -0.13916528 -0.26337162 0.09389162 0.10549153 0.051417835 0.12183747
0.17347316 -0.15926255 -0.10616183 -0.13624573 0.26198962 -0.15247563 0.10710988 0.19497395
-0.22383346 -0.21262798 0.28441173 -0.05078479 -0.06795743 0.07529425 -0.22890776 0.2409819
-0.18537013 -0.14730312 0.14950867 0.1916428 0.22012867 0.071716785 -0.16398077 -0.17364259
-0.29123443 -0.12296058 -0.19687267 -0.022004737 -0.1422638 -0.28174272 -0.12470133 0.106844656
-0.03909169 -0.042722043 -0.15261966 -0.21502373 0.063356556 0.021183956 0.20749182 0.11868007
0.09880428 -0.121958405 0.0625441 -0.15570645 0.1398012 -0.14953072 -0.26715076 0.2654402
0.14565332 0.13676643 0.27614322 0.15071863 -0.077897176 0.057845358 0.11727817 0.15743281
0.034747504 0.15183952 -0.04242534 -0.012965615 0.29284656 0.10673258 0.20050275 0.086921945
0.13895644 0.078322195 0.12845695 -0.027305892 0.10454284 0.2580338 0.2614023 0.03212614
0.04369816 -0.24404515 0.10469954 -0.02456415 0.097959645 0.29520696 -0.051873047 0.15686668
-0.10362783 -0.30077204 0.29270217 0.1513626 0.28354436 -0.25242487 0.29115966 -0.037655044
0.22415 0.14728121 0.12508976 -0.27087292 0.1384613 -0.268598 -0.24017145 0.007901439
-0.031104352 0.040858503 0.26521304 0.16269667 0.15620665 0.28245655 0.131812 -0.1540359
0.2154431 -0.067664266 0.09486531 -0.22086017 -0.080669895 0.14921571 -0.15788817 -0.13505745
0.20892121 -0.08458912 0.259212 0.10711218 -0.044362202 -0.042004485 -0.056484215 -0.28016928
-0.24072877 0.10345407 -0.076799236 0.24986571 0.11945058 -0.19230948 -0.10140355 -0.053599708
-0.124070644 -0.14925773 0.045248784 0.25736976 -0.050413564 -0.2506283 0.19734652 -0.2535371
-0.06281396 -0.29333866 0.09959424 0.29848447 0.11267365 0.056587517 -0.10198535 -0.27130544
0.216968 0.055397544 0.24180177 0.106448926 0.25745142 -0.25933158 -0.030596271 0.11710746
0.32526585 0.20257106 0.254795 0.28504592 0.22544287 0.32623565 0.16567719 -0.10757669
0.09816201 -0.08646941 0.155389 0.11190606 0.10155475 -0.033582333 0.037409227 -0.23424612
-0.34462622 -0.25665063 -0.07635164 -0.10750215 -0.24688129 0.15928996 0.2518838 0.25323862
-0.07556583 0.12443388 -0.226174 -0.16477706 0.07162088 -0.09422143 -0.111527935 0.24864078
0.10646389 -0.03137608 0.048351455 0.07065934 0.18978636 0.2620417 0.12462742 0.09826492
-0.048772614 -0.056259975 -0.22509265 -0.22305083 0.07984541 -0.0048006945 -0.051063146 -0.076900065
00000000: cb9c 763c 1007 33be 97eb 21be 6e32 25be
00000010: 590e 073e 2419 823e 6333 613e 1420 213e
00000020: e75c 0b3d 3945 393d e5e5 703b 0f09 2c3e
00000030: b5fc 993e 79b9 67be 5d70 32be 0fa8 85be
00000040: e4ac 943e fb45 75be 2a46 9c3e 36b2 173e
00000050: 2c68 68bc ebb7 9f3e b816 fbbd e5fe 4dbe
00000060: 21a8 69be 4886 f33d 7766 84be 6523 8a3d
00000070: 6913 44be d353 81be 5c96 3bbe 7df2 60be
00000080: e2be 20be 2100 cfbd d9c0 523e 29c4 163e
00000090: aee9 693e dd80 133e 5a20 1cbe d12b e9bd
000000a0: 34b9 f5ba 2794 703d def1 64be 85f3 96be
000000b0: 2fc2 12be b7af e93d 6f82 923d 2886 90be
000000c0: 8a8d 45be 3b3a 943e 5881 0ebe a5d8 86be
000000d0: 404a c03d f10b d83d 829b 523d ec85 f93d
000000e0: f3a2 313e b915 23be 606b d9bd 0084 0bbe
000000f0: 8123 863e 9222 1cbe 6d5c db3d 40a7 473e
00000100: 9934 65be 26bb 59be 6a9e 913e b603 50bd
00000110: 442d 8bbd df33 9a3d cc66 6abe f6c3 763e
00000120: abd1 3dbe a1d6 16be cd18 193e 033e 443e
00000130: 6969 613e 40e0 923d 93ea 27be 5dcf 31be
00000140: ae1c 95be c2d2 fbbd fd98 49be 4743 b4bc
00000150: 9aad 11be 9540 90be 6963 ffbd 5fd1 da3d
00000160: 9c1e 20bd 4ffd 2ebd 5448 1cbe 2e2f 5cbe
00000170: 15c1 813d fa89 ad3c bc78 543e 890e f33d
00000180: e659 ca3d 54c5 f9bd 1f17 803d 8371 1fbe
00000190: 0c28 0f3e 951e 19be fcc7 88be c7e7 873e
000001a0: 2526 153e 800c 0c3e a562 8d3e fc55 1a3e
000001b0: 8e88 9fbd 41ef 6c3d 8a2f f03d 1136 213e
000001c0: 6653 0e3d d27b 1b3e 31c6 2dbd bb6d 54bc
000001d0: fcef 953e 9c96 da3d 9850 4d3e 2204 b23d
000001e0: 994a 0e3e 6367 a03d 388a 033e 9bb0 dfbc
000001f0: 8e1a d63d 021d 843e 86d6 853e b396 033d
00000200: d8fc 323d f9e6 79be b66c d63d c23a c9bc
00000210: 119f c83d 5e25 973e d578 54bd a9a1 203e
00000220: d43a d4bd cbfe 99be 0fdd 953e ccfe 1a3e
00000230: ba2c 913e d53d 81be e112 953e 2d3c 1abd
00000240: 9487 653e e3d0 163e 8817 003e dbaf 8abe
00000250: cdc8 0d3e ad85 89be 81ef 75be 0a75 013c
00000260: 8ece febc 3f5b 273d 01ca 873e f599 263e
00000270: a3f4 1f3e 259e 903e baf9 063e 96bb 1dbe
00000280: 1e9d 5c3e 9093 8abd be48 c23d 2b29 62be
00000290: 4236 a5bd 01cc 183e 70ad 21be 804c 0abe
000002a0: 71ef 553e 0f3d adbd 6fb7 843e a15d db3d
000002b0: 24b5 35bd e50c 2cbd fe5b 67bd 5972 8fbe
000002c0: 9a81 76be badf d33d eb48 9dbd ccdc 7f3e
000002d0: 81a2 f43d c7ec 44be aaac cfbd 5e8b 5bbd
000002e0: c018 febd 05d7 18be ca56 393d f8c5 833e
000002f0: 747e 4ebd 5a52 80be 3515 4a3e 9dcf 81be
00000300: 9ba4 80bd 7c30 96be 11f8 cb3d f5d2 983e
00000310: 71c1 e63d 50c8 673d b2dd d0bd 8ce8 8abe
00000320: dc2c 5e3e 89e8 623d e29a 773e e501 da3d
00000330: acd0 833e 1cc7 84be 08a5 fabc 09d6 ef3d
00000340: 3f89 a63e ca6e 4f3e 7e74 823e 8af1 913e
00000350: 7fda 663e 5c08 a73e 48a7 293e 2b51 dcbd
00000360: 2a09 c93d e016 b1bd 4b1e 1f3e 012f e53d
00000370: f0fb cf3d a18d 09bd 6b3a 193d 37de 6fbe
00000380: d972 b0be b667 83be 405e 9cbd 162a dcbd
00000390: 73ce 7cbe e81c 233e eaf6 803e 7ea8 813e
000003a0: 42c2 9abd 31d7 fe3d 289a 67be 51bb 28be
000003b0: f8ad 923d 2af7 c0bd c268 e4bd b09b 7e3e
000003c0: bd09 da3d 3484 00bd 2d0c 463d d8b5 903d
000003d0: 5b57 423e 542a 863e a93c ff3d 1e3f c93d
000003e0: cbc5 47bd dc70 66bd b07e 66be 7067 64be
000003f0: fe85 a33d 254f 9dbb 9727 51bd c87d 9dbd
