checkpoint/TransE-199.ckpt (torch, 21287 bytes, 2 tensors)

ent_embeddings.weight f4 [87, 50]
000000 98 d6 a8 3d 71 c5 c5 bd 6e c5 b5 3c 44 9d ab 3b
       0.082440555 -0.096567996 0.022188868 0.0052372534
000010 b7 a5 fb 3d e6 d6 ef 3d f0 e2 61 3e 0c ab 5f 3d
       0.12287467 0.117109105 0.22059226 0.054606482
000020 da 2e 17 be 15 94 03 3e 7f 96 c3 bd c0 9f 17 3d
       -0.14763966 0.12849458 -0.09550189 0.037017584
000030 b0 30 a0 bd da d8 72 bd c6 eb 72 3e 75 31 07 3e
       -0.078217864 -0.059288837 0.23722753 0.1320246
000040 21 f3 ba bc 89 21 ae bc 0d 7a df bd cd 04 a1 3d
       -0.022821011 -0.021256225 -0.10911951 0.07862244
000050 8b 52 fa 3c 51 74 13 be a6 bb e5 bd c0 6c e9 3d
       0.030556938 -0.1439984 -0.11217432 0.113976955
000060 09 92 a1 3d 95 0c 1c be d1 db 7d 3d a9 24 89 3d
       0.07889182 -0.15239175 0.06197721 0.066964455
000070 ff 78 0a be 25 16 11 3e 5f 24 32 3e 85 e8 f9 3d
       -0.13522719 0.14168604 0.17396687 0.12202553
000080 bb f3 1b be 34 08 78 bd 61 82 d7 bd 69 0b c1 3d
       -0.15229695 -0.060554698 -0.10522915 0.094260044
000090 af 6b e9 3c 29 87 47 be 71 46 a7 3d 64 27 21 3d
       0.02849373 -0.19485153 0.081677325 0.039344206
0000a0 39 bd 9a 3c b7 52 e7 3d eb 90 da 3c 1e b7 85 bd
       0.018889057 0.112950735 0.02668043 -0.065290675
0000b0 f4 df 25 be e5 f1 44 be 1f ad 77 bd 2a e2 1e bd
       -0.16198713 -0.192329 -0.060467836 -0.038789906
0000c0 86 40 34 3e 1a 53 b7 bd 3d 7c 90 3d 0e 4d d8 3d
       0.17602739 -0.08951397 0.070549466 0.10561572
0000d0 8e 93 93 3e 29 80 7d 3d 82 93 cb bd 56 d6 05 3d
       0.28823513 0.0618898 -0.09940244 0.03267511
0000e0 d3 a3 f3 bd a6 1d 0b be e9 7f b3 bd f6 a7 f6 3d
       -0.11896481 -0.13585529 -0.08764631 0.12043755
0000f0 96 be 02 bd 56 1f 4d bd 90 9c 05 3e f7 8f 8d 3d
       -0.03192004 -0.050078712 0.13048005 0.06912225
000100 e8 83 cd 39 31 75 a4 3d 7b f4 20 be 05 02 ce bc
       0.00039198925 0.08030165 -0.15718262 -0.025147447
000110 1f 0e b3 3d a1 ae 32 3d 18 d5 3e 3e d9 f7 26 3e
       0.08742928 0.04362357 0.18635976 0.16305484
000120 3e 24 0a bd ac 6a e5 3d 40 41 b6 3c 79 c0 31 be
       -0.03372597 0.11201987 0.02224791 -0.17358579
000130 10 05 f3 bd e4 85 c5 3d a5 8a b7 bc 7d b2 c3 be
       -0.118662 0.09644678 -0.022404978 -0.38222113
000140 53 c0 fc bc 00 f8 76 bd c3 8c 00 be 9e 1c e1 3d
       -0.030853426 -0.060295105 -0.12553696 0.109917864
000150 78 ab a0 3d cc 75 51 3e 5c 5a 71 bd b1 c8 96 3e
       0.07845205 0.20455092 -0.058924064 0.2944999
000160 b9 21 9a bd dc 47 76 bb f4 ad dc bd 16 f6 0b 3e
       -0.07525963 -0.0037579453 -0.107753664 0.13668093
000170 4b 3e c8 bd 16 3f 0c be 61 12 8f bc 64 c7 a4 3d
       -0.097775064 -0.1369594 -0.017464818 0.08045843
000180 78 3c af 3c 08 73 81 3d c2 0f ff 3d a3 f4 b5 bd
       0.021391138 0.063207686 0.124541774 -0.088845514
000190 a2 5a ea bd 68 52 4e 3e ce 62 cb 3c b5 88 12 3e
       -0.11443068 0.20148623 0.024827387 0.14309962
0001a0 b5 18 dd bd d1 12 22 3e 50 1d 3b 3e 25 5b 24 3e
       -0.10795728 0.1582749 0.182729 0.16050394
0001b0 18 dc 1e 3e 04 c6 ba 3d 00 d9 27 bb c9 cb 2d be
       0.15513647 0.091198 -0.002561152 -0.16972269
0001c0 b7 94 4e be e6 12 b3 3d 0e e1 d4 bc 3c d7 c2 3d
       -0.20173918 0.08743839 -0.02598622 0.09513709
0001d0 76 f1 13 be 4d 9a f0 bd d1 3f 08 be 7b 0e 52 3e
       -0.14447579 -0.117481805 -0.13305594 0.20513336
0001e0 0f 3c 41 be 20 c9 0e 3e 8f b2 2d be 75 a8 1d 3e
       -0.18870567 0.1394391 -0.16962646 0.15396293
0001f0 fd 8c 34 be bf 6c 15 3e 9e bc 06 3e 7e f7 31 be
       -0.17631908 0.14592265 0.13157889 -0.17379567
000200 9b a9 56 bd ec 08 ce 3d 9b bf 5f bd 93 7f c1 3d
       -0.052407842 0.100602955 -0.05462609 0.09448161
000210 fa 0f fb 3d 56 a7 6a bd 32 60 66 be 70 7e 1f 3e
       0.12258907 -0.05728849 -0.22497633 0.15575576
000220 7e f5 30 bd 53 93 18 3e c2 8f 0f bd e7 f0 39 3e
       -0.04320287 0.1489995 -0.035049208 0.18158303
000230 5b 02 4d be 0e 10 1b bb 7c bc 17 3e 83 25 89 bd
       -0.2002043 -0.0023660692 0.14817995 -0.06696608
000240 9a 9b 71 3d 9e 86 5f bd fc b8 23 be 34 d4 46 be
       0.058986284 -0.05457174 -0.15988535 -0.19416887
000250 e0 8c 32 3e 82 14 d9 3d 74 33 a2 3d 87 6b 43 be
       0.17436552 0.10599615 0.0791997 -0.19083987
000260 04 66 a0 3d 4a 7e 88 3e 14 54 30 3e 2b 0e d2 bd
       0.07831958 0.2665885 0.17219573 -0.102566086
000270 5f 7b 59 3d 37 9e 17 be 54 5b 97 3d 77 af 13 3e
       0.05309617 -0.14806448 0.07390466 0.14422403
000280 dc 71 9f bd 0c 1d 83 3e 42 e8 68 be ff 80 29 3e
       -0.07785389 0.25608099 -0.2274485 0.16553114
000290 8e 05 62 3e 1e ab 45 be d6 14 2a be 70 5c 58 bd
       0.22072431 -0.19303557 -0.16609511 -0.05282253
0002a0 e0 a6 57 3e a7 bf 1b be ba 04 88 3d ed 14 19 3d
       0.21059752 -0.15209828 0.066415265 0.037373472
0002b0 2d b6 f9 3d d0 aa 00 bd 9e f8 f0 3c 4b cf b6 bc
       0.121929504 -0.0314129 0.029415425 -0.022315642
0002c0 43 f4 5e be 14 f3 03 be 1e 17 69 be 89 36 33 3e
       -0.21772866 -0.12885696 -0.22762725 0.17501272
0002d0 25 4b 41 3e 98 d8 72 bd 22 2d 07 3e bd 84 d3 3c
       0.18876322 -0.05928859 0.1320081 0.02582013
0002e0 c4 49 a0 bd c5 eb 6e 3d 1c 0e 2f 3e a9 4d 7f bd
       -0.0782657 0.058330316 0.17095226 -0.062329922
0002f0 e1 0b 32 bd 43 5d 24 be 26 03 ee bb a7 db ac 3d
       -0.04346836 -0.16051202 -0.007263559 0.08440333
000300 19 b0 42 3e 1d d5 a4 bd 16 60 2e be d4 2c 00 be
       0.19012488 -0.08048461 -0.17028841 -0.125171
000310 1c 2b 1d be 94 de 23 bd 89 ce b1 bc 4a be 2f be
       -0.15348476 -0.04000719 -0.021704929 -0.17162433
000320 9c f9 98 3b e7 bd 5b 3e fb a4 ef bd 57 3d aa bd
       0.0046684276 0.21459161 -0.117013894 -0.08312481
000330 09 01 23 bd fc d0 ef ba a8 00 a8 bb 30 d2 9a bd
       -0.03979591 -0.0018296535 -0.0051270314 -0.07559621
000340 a9 fc a3 3d 62 2f 1b 3d 1d 6f 3d 3d 93 83 2a be
       0.080071755 0.037886985 0.046248544 -0.16651754
000350 2e 38 21 be 90 21 9f 3d 24 6a 16 3b 04 3d 8e 3b
       -0.15744087 0.077700734 0.0022951448 0.0043407697
000360 9c bb 95 bd e3 42 70 3e 94 76 46 3d eb 38 b1 3d
       -0.07311174 0.23463015 0.04845293 0.08653434
000370 c5 75 aa bd 17 25 19 3e 1d ab 26 3e 28 89 0d 3e
       -0.08323244 0.14955555 0.16276212 0.13821852
000380 a6 0d a4 3c cf c5 05 be 24 63 61 3a ae 2b da bb
       0.02002604 -0.13063739 0.0008597842 -0.006658039
000390 c1 7e ec bc 04 45 10 be a7 06 ed 3c 4f 8c 22 bd
       -0.028869035 -0.14088827 0.028933836 -0.03968459
0003a0 9d 88 9c ba 79 b4 ec 3d 56 61 bc 3d 35 0e ab bd
       -0.0011942569 0.1155786 0.09198253 -0.08352319
0003b0 e5 06 69 3d a1 92 60 bd 95 da bb bd 72 ce 6c bd
       0.05689134 -0.054827336 -0.091725506 -0.05781407
0003c0 8e b1 d4 bd d3 1e ae 3b 2e 14 b0 3d d9 7e 6a 3e
       -0.10385428 0.005313733 0.08597599 0.22899951
0003d0 0b e6 0e be b7 e8 04 be e3 dc a7 bd 95 5e a4 3d
       -0.13954942 -0.12979399 -0.08196428 0.080258526
0003e0 04 1e 1b be 75 50 04 be 5c 6e 4c be fe 44 51 be
       -0.15148169 -0.12921317 -0.19963974 -0.20436475
0003f0 90 72 4b 3e cc 36 23 be f1 2e 5d bd ed 93 49 be
       0.19867921 -0.15938872 -0.053999845 -0.19685335

rel_embeddings.weight f4 [14, 50]
000000 7e 8b a5 3b 10 07 33 be 97 eb 21 be 6e 32 25 be
       0.005052029 -0.17483163 -0.15812527 -0.16132519
000010 d0 a1 f9 3d 24 19 82 3e 63 33 61 3e 86 5d 2b 3e
       0.121890664 0.25409806 0.21992259 0.16734895
000020 83 21 2c 3d c4 b1 20 3d 2a fc b9 3b ed 2d 32 3e
       0.042024147 0.03923203 0.0056758123 0.17400332
000030 b5 fc 99 3e 07 7c 5d be 19 ba 3e be 59 b4 87 be
       0.30075613 -0.21629344 -0.18625678 -0.26504782
000040 09 b3 95 3e 61 d7 62 be bb 33 99 3e 36 b2 17 3e
       0.29238155 -0.22152473 0.2992228 0.14814076
000050 4e bd b5 bc 32 99 9a 3e 4b 2f ff bd 79 17 52 be
       -0.022184994 0.30195004 -0.12460192 -0.20516767
000060 21 a8 69 be 6e b7 fb 3d 77 66 84 be 6a cf a6 3d
       -0.22818042 0.12290846 -0.25859424 0.0814503
000070 69 13 44 be d3 53 81 be a6 a2 3d be c7 fe 62 be
       -0.1914803 -0.25259265 -0.18519077 -0.22167502
000080 e2 be 20 be 21 00 cf bd 1d 77 46 3e 2f 1a 25 3e
       -0.15697816 -0.101074465 0.19381376 0.1612327
000090 8c 0e 70 3e bb a5 19 3e 76 a5 07 be 85 c9 d8 bd
       0.23443049 0.15004627 -0.13246712 -0.10585312
0000a0 bc 80 c0 bb 64 9e 47 3d 28 fe 66 be aa f9 97 be
       -0.0058747213 0.048735037 -0.2255789 -0.29682666
0000b0 07 91 0a be 1f eb c8 3d 02 9b 96 3d 94 6d 8c be
       -0.13531886 0.09810471 0.07353784 -0.2742735
0000c0 1e a6 49 be 3b 3a 94 3e 36 a6 14 be ec b9 81 be
       -0.19692275 0.28950676 -0.1451653 -0.2533716
0000d0 1f c5 d4 3d f1 0b d8 3d d7 af 8e 3c 0d 0b e5 3d
       0.1038916 0.10549153 0.017417831 0.111837484
0000e0 f3 a2 31 3e b9 15 23 be 7c 44 a8 bd 5e 97 d9 bd
       0.17347316 -0.15926255 -0.08216187 -0.10624574
0000f0 41 a7 71 3e 20 e5 11 be fb c8 c2 3d ac 8e 43 3e
       0.23598959 -0.1424756 0.0951099 0.19097394
000100 6b ad 4e be 04 e0 5f be fe b6 95 3e 12 ce eb bc
       -0.20183341 -0.21862799 0.29241174 -0.028784785
000110 63 42 c4 bc 98 32 9a bb 16 73 6c be f6 c3 76 3e
       -0.023957437 -0.0047057383 -0.23090777 0.2409819
000120 17 b9 39 be 35 ef 1a be 83 0c 17 3e 91 00 3a 3e
       -0.18137012 -0.15130313 0.14750867 0.18164279
000130 1f 5d 5f 3e d3 f8 96 3d d7 a0 1b be cf 0c 3c be
       0.21812867 0.07371678 -0.15198074 -0.18364261
000140 ae 1c 95 be 97 f5 d6 bd 91 b1 4d be dd 61 03 bb
       -0.29123443 -0.10496061 -0.20087267 -0.0020047345
000150 72 7c 09 be 95 40 90 be 69 63 ff bd 5a 25 be 3d
       -0.13426378 -0.28174272 -0.12470133 0.09284468
000160 00 b4 fe bc e1 85 ca bc 92 a8 01 be c2 47 60 be
       -0.03109169 -0.024722042 -0.1266196 -0.21902373
000170 03 51 7b 3d e8 3c 37 3c c2 ce 62 3e d0 c4 e6 3d
       0.061356556 0.011183955 0.22149184 0.11268008
000180 74 c6 b1 3d 1b 20 07 be 9d 37 fa 3c 61 96 25 be
       0.0868043 -0.13195841 0.030544097 -0.16170646
000190 e4 f6 06 3e a7 fd fc bd d7 c1 87 be 58 d5 84 3e
       0.13180119 -0.12353068 -0.26515076 0.25944018
0001a0 47 01 0f 3e 8c b8 28 3e a5 62 8d 3e da 7a 20 3e
       0.13965331 0.16476649 0.27614322 0.15671864
0001b0 b4 b9 a7 bd 41 ef 6c 3d 3e cd df 3d 9f f8 16 3e
       -0.08189717 0.057845358 0.10927819 0.14743279
0001c0 3f 22 06 3d d8 d1 29 3e 58 f7 35 bd 91 dc 46 3b
       0.032747503 0.16583955 -0.04442534 0.003034387
0001d0 fc ef 95 3e 76 65 d2 3d 98 50 4d 3e 69 ba a5 3d
       0.29284656 0.102732584 0.20050275 0.080921955
0001e0 05 32 0a 3e 1c b1 ac 3d fa 29 1e 3e 63 27 9e bc
       0.13495643 0.084322184 0.154457 -0.01930589
0001f0 68 e9 cd 3d 27 23 85 3e 86 d6 85 3e da c7 0b 3d
       0.10054284 0.26003382 0.2614023 0.03412614
000200 63 69 1a 3d 87 a9 6f be 1e a8 b5 3d 0e ba 3e bd
       0.03769816 -0.23404513 0.088699564 -0.046564154
000210 2d 78 97 3d 5e 25 97 3e 7c 6a 92 bc af f7 2e 3e
       0.073959686 0.29520696 -0.017873041 0.17086671
000220 8d 84 e0 bd cb fe 99 be 7e ef 98 3e 3e 3c 25 3e
       -0.10962782 -0.30077204 0.29870218 0.16136262
000230 ba 2c 91 3e b0 37 80 be e1 12 95 3e 38 c8 c1 bc
       0.28354436 -0.25042486 0.29115966 -0.023655042
000240 00 6f 61 3e e3 d0 16 3e d2 23 02 3e 4a c2 8d be
       0.22015 0.14728121 0.12708977 -0.27687293
000250 a5 97 05 3e ad 85 89 be e7 80 63 be bd 43 82 3c
       0.13046129 -0.268598 -0.22217141 0.01590144
000260 6e 98 07 bd 77 e4 68 3d 29 fb 8f 3e fb ef 34 3e
       -0.033104353 0.056858506 0.28121307 0.1766967
000270 a3 f4 1f 3e 25 9e 90 3e 76 43 13 3e be ec 25 be
       0.15620665 0.28245655 0.14381203 -0.16203591
000280 b2 b5 60 3e eb 9d 53 bd 72 e6 b1 3d 9d 66 6c be
       0.21944311 -0.051664274 0.08686532 -0.23086019
000290 21 b1 b9 bd 01 cc 18 3e 70 ad 21 be 62 d4 f3 bd
       -0.09066988 0.14921571 -0.15788817 -0.11905743
0002a0 bb fb 57 3e 0a 91 90 bd 6f b7 84 3e a6 09 f8 3d
       0.21092121 -0.07058914 0.259212 0.12111215
0002b0 d9 57 e8 bc 33 6f 3c bd fe 5b 67 bd 59 72 8f be
       -0.028362202 -0.046004485 -0.056484215 -0.28016928
0002c0 86 5f 80 be 22 1b b3 3d c5 17 95 bd 5a 9f 75 3e
       -0.2507288 0.087454095 -0.07279924 0.23986569
0002d0 fb 9a 06 3e 55 af 3a be aa ac cf bd d3 1e 74 bd
       0.13145058 -0.18230946 -0.10140355 -0.05959971
0002e0 2d 00 fa bd 49 8d 0c be e0 2f 08 3d f8 c5 83 3e
       -0.12207065 -0.13725771 0.033248782 0.25736976
0002f0 c2 e0 5e bd 5a 52 80 be a1 fc 45 3e 9d cf 81 be
       -0.054413565 -0.2506283 0.19334652 -0.2535371
000300 9b a4 80 bd 7c 30 96 be a4 10 d0 3d f5 d2 98 3e
       -0.06281396 -0.29333866 0.10159424 0.29848447
000310 97 f2 ee 3d 50 c8 67 3d 6b 27 dd bd 67 e2 89 be
       0.11667364 0.056587517 -0.10798534 -0.26930544
000320 e2 82 6c 3e 1c d3 f0 3c 48 2c 65 3e 27 0c b1 3d
       0.23096803 0.02939754 0.22380173 0.08644896
000330 96 01 6d 3e 1c c7 84 be 00 9b f2 3b 04 2a d3 3d
       0.23145136 -0.25933158 0.0074037313 0.10310748
000340 1a 83 a5 3e a8 93 55 3e 40 9f 78 3e f6 d8 8d 3e
       0.32326585 0.20857108 0.24279499 0.2770459
000350 a1 b5 60 3e 34 d7 9e 3e d6 69 1f 3e 00 74 b7 bd
       0.21944286 0.31023562 0.15567717 -0.08957672
000360 b8 75 b0 3d aa 7d 6f bd c6 10 6b 3d 94 47 e9 3d
       0.08616203 -0.058469452 0.057389043 0.113906056
000370 a3 ba e1 3c bc 2f c1 bc b3 dc 81 3d bf 4a 57 be
       0.027554816 -0.023582332 0.06340923 -0.21024607
000380 6a 60 ad be 4a 80 87 be 4e 33 77 bd 2d 57 8e bd
       -0.3386262 -0.26465064 -0.060351662 -0.06950221
000390 d9 5f 6a be 9e 10 21 3e ea 1c 5f 3e 81 d3 88 3e
       -0.22888125 0.15728995 0.21788374 0.26723865
0003a0 89 78 8e bd 98 12 de 3d 50 cb 6f be 79 ec 30 be
       -0.06956584 0.1084339 -0.23417401 -0.17277707
0003b0 85 49 22 3d 6c 01 98 bd 2a a4 c3 bd 60 39 6e 3e
       0.039620895 -0.07422146 -0.09552796 0.23264074
0003c0 de 8e c5 3d b8 62 3a bc be 5d 4a 3c 2e 80 4f 3d
       0.096463904 -0.011376075 0.012351451 0.05065935
0003d0 99 b7 27 3e 76 05 80 3e e6 9a b9 3d f8 0d c1 3d
       0.1637863 0.25004166 0.09062748 0.094264925
0003e0 e1 9e 16 bd a4 e7 24 bd b0 7e 66 be 70 67 64 be
       -0.036772612 -0.040259972 -0.22509265 -0.22305083
0003f0 fe 85 a3 3d 25 4f 9d bb 97 27 51 bd c8 7d 9d bd
       0.07984541 -0.0048006945 -0.051063146 -0.076900065
