checkpoint/TransE-299.ckpt (torch, 21287 bytes, 2 tensors)

ent_embeddings.weight f4 [87, 50]
00000000: c007 b13d 05de c9bd 6c78 683c 1af3 47ba
00000010: 6feb 013e bea5 e73d 3aef 633e c048 4f3d
00000020: 9022 15be 02f7 fe3d 8096 c3bd 0d02 283d
00000030: 4449 a4bd 939d 81bd 32d3 6e3e 970c 013e
00000040: d390 aabc 8921 aebc a192 e3bd 611d a53d
00000050: 3bf0 e93c 2f99 19be 7e8a ddbd 983b e13d
00000060: 7579 9d3d 950c 1cbe abaa 753d dbb5 793d
00000070: 9391 0ebe 6f22 133e cb0b 2e3e 5db7 f13d
00000080: 71e7 19be 4135 84bd 3951 cfbd 690b c13d
00000090: 13a7 c83c 2987 47be 4915 9f3d b089 313d
000000a0: 3af1 733c 243a e33d eb90 da3c ee0b 7bbd
000000b0: 88f8 29be 2ffe 46be d34a 67bd dd7f 0ebd
000000c0: a81b 2e3e caf0 a6bd aeb9 9a3d 808a e23d
000000d0: 7e3b 9a3e 7136 713d 3887 c9bd c3bd 013d
000000e0: afc8 f9bd 8117 0abe c7a4 b9bd 1983 f03d
000000f0: 31fe 9abc 0111 20bd 6b96 043e d3b4 933d
00000100: 6a73 b63a 0d9a aa3d 56ee 1fbe ded0 c5bc
00000110: 2264 c13d 0e96 2e3d 4331 4e3e dc22 2e3e
00000120: b952 ebbc b0c0 f33d 0337 df3c 0aae 2ebe
00000130: c6f8 f0bd 54c3 cf3d f0db 3abc b53b c5be
00000140: bd78 02bd 46ae 6abd 3c0d ffbd 358b f33d
00000150: 9a86 9a3d 5d63 4e3e c941 6dbd 5364 9b3e
00000160: ba77 a8bd 7d7d 0fbc cc26 c6bd c9be 023e
00000170: 06de e2bd 196a 13be d8fd 6cbc 41ec aa3d
00000180: cec8 6b3c 316b 6e3d 7803 fd3d 3963 c8bd
00000190: 584e e8bd 8d58 4f3e f593 d33c 9082 113e
000001a0: ff24 dfbd f618 233e 7523 3c3e 4a61 253e
000001b0: 3de2 1f3e 4ed2 bc3d 919f ccba eed1 2ebe
000001c0: dc9a 4fbe 9c06 b13d 3512 ddbc 86e3 c43d
000001d0: 9bf7 14be 038e eebd ac39 07be a014 533e
000001e0: 3442 42be fbc2 0d3e 6aac 2cbe 9aae 1e3e
000001f0: 2293 35be e472 163e 79b6 053e a3fd 32be
00000200: 0891 52bd 3615 d03d 2ed8 63bd 4973 bf3d
00000210: b003 f93d c38e 66bd 0d5a 65be 9584 203e
00000220: 110e 35bd 2e8d 173e 2f77 0bbd 0cf7 3a3e
00000230: 36fc 4bbe ad0d b3ba a1c2 183e 3919 87bd
00000240: 0783 6d3d 319f 63bd 21bf 24be 59da 47be
00000250: 0593 333e 3808 d73d e670 ac3d 1859 40be
00000260: 76a3 aa3d c913 8c3e 5b35 2b3e 0933 d8bd
00000270: 8000 453d 7e7f 12be c698 a13d 7ada 1a3e
00000280: fe4c 99bd 66ac 853e d3d5 65be fc55 223e
00000290: 9130 693e af98 42be 6702 27be b712 4cbd
000002a0: 7194 543e 38ad 18be 6e5d 733d 5bfc 143d
000002b0: e3a9 f73d af25 15bd 2965 d83c c062 cfbc
000002c0: b206 62be 8305 07be d735 6ebe 8c61 3a3e
000002d0: 2220 3a3e df8e 66bd b31a 043e fa8e aa3c
000002e0: 3587 aabd 0ca2 623d adfb 2b3e f003 73bd
000002f0: e7b7 4ebd d44a 21be 19ed 48bc c9b6 a63d
00000300: aa9d 3f3e ac97 9abd a74d 2bbe ca34 fabd
00000310: ad18 1abe db94 17bd 629d a9bc 919f 2abe
00000320: fcd6 adb9 eae8 623e 6ce2 f9bd eeab bcbd
00000330: 77e8 1ebd b671 39bb e833 05b9 e5c5 98bd
00000340: 37bf 993d cd16 173d b487 413d 74d3 37be
00000350: e756 26be f6b2 8c3d 312b 9abb c3bc af3a
00000360: 362a a8bd 5255 733e ff5d 423d 0268 8e3d
00000370: 7e69 a8bd 8637 1c3e 6ae2 2f3e 09d9 1a3e
00000380: 6903 cd3c d2f0 0cbe 54c6 003c 9a7b 193b
00000390: 1462 92bc 1eb9 fdbd 484c a33c bb73 1ebd
000003a0: 78b1 4bb9 7d0a fb3d 3586 c23d 1533 b1bd
000003b0: 3023 8f3d 58dc 6cbd 527a d6bd fb8e 37bd
000003c0: 622a bebd effa 283c edb3 ca3d 70c2 753e
000003d0: 30ec 0fbe 92e2 03be 06b8 a1bd 2021 9a3d
000003e0: 5155 24be 7863 febd 5c6e 4cbe fe44 51be
000003f0: 9072 4b3e cc36 23be f12e 5dbd ed93 49be
0.08644056 -0.098568 0.014188867 -0.00076274725 0.12687467 0.1131091 0.22259226 0.05060649
-0.14563966 0.12449457 -0.0955019 0.04101758 -0.08021787 -0.06328883 0.23322752 0.12602459
-0.02082101 -0.021256225 -0.111119516 0.08062244 0.028556934 -0.14999841 -0.10817431 0.10997695
0.07689182 -0.15239175 0.059977215 0.060964447 -0.1392272 0.14368604 0.16996686 0.11802552
-0.15029694 -0.0645547 -0.10122914 0.094260044 0.02449373 -0.19485153 0.07767732 0.0433442
0.014889056 0.11095074 0.02668043 -0.061290674 -0.16598713 -0.19432901 -0.056467842 -0.03478991
0.17002738 -0.081513956 0.07554947 0.11061573 0.30123514 0.05888981 -0.09840244 0.03167511
-0.121964805 -0.13485529 -0.09064632 0.11743755 -0.018920036 -0.039078716 0.12948005 0.07212224
0.0013919894 0.08330164 -0.15618262 -0.024147447 0.09442927 0.042623572 0.2013598 0.17005485
-0.028725969 0.119019866 0.027247911 -0.17058578 -0.117662 0.10144678 -0.011404976 -0.38522115
-0.031853426 -0.057295106 -0.12453696 0.11891786 0.075452045 0.20155092 -0.057924066 0.3034998
-0.08225961 -0.008757946 -0.09675369 0.12768091 -0.11077504 -0.14395942 -0.014464818 0.08345843
0.014391137 0.058207694 0.12354177 -0.0978455 -0.11343068 0.20248623 0.025827387 0.14209962
-0.10895728 0.1592749 0.18372901 0.16150394 0.15613647 0.092198 -0.0015611519 -0.1707227
-0.20273918 0.08643839 -0.02698622 0.09613709 -0.14547579 -0.1164818 -0.13205594 0.20613337
-0.18970567 0.1384391 -0.16862646 0.15496293 -0.17731908 0.14692265 0.13057889 -0.17479567
-0.051407844 0.10160296 -0.055626087 0.09348161 0.121589065 -0.056288492 -0.22397633 0.15675576
-0.044202868 0.1479995 -0.03404921 0.18258303 -0.1992043 -0.0013660692 0.14917995 -0.06596608
0.057986286 -0.05557174 -0.16088535 -0.19516887 0.17536552 0.104996145 0.08419971 -0.18783987
0.08331959 0.27358845 0.16719572 -0.10556609 0.04809618 -0.14306447 0.07890467 0.15122405
-0.07485388 0.26108092 -0.22444849 0.15853113 0.22772433 -0.19003557 -0.1630951 -0.049822535
0.20759751 -0.14909828 0.059415273 0.036373477 0.1209295 -0.03641289 0.026415424 -0.025315642
-0.22072867 -0.13185696 -0.23262726 0.18201274 0.1817632 -0.056288596 0.1290081 0.02082013
-0.0832657 0.05533032 0.16795225 -0.059329927 -0.05046835 -0.15751201 -0.01226356 0.08140332
0.18712488 -0.0754846 -0.16728841 -0.122171 -0.15048476 -0.037007194 -0.020704929 -0.16662432
-0.00033157307 0.22159162 -0.1220139 -0.092124805 -0.038795915 -0.0028296537 -0.00012703205 -0.074596204
0.075071745 0.03688698 0.047248557 -0.17951757 -0.16244088 0.068700716 -0.004704856 0.0013407696
-0.08211176 0.23763016 0.047452923 0.06953432 -0.08223246 0.15255556 0.17176214 0.15121855
0.02502604 -0.1376374 0.007859785 0.002341962 -0.017869033 -0.12388824 0.019933835 -0.038684588
-0.00019425701 0.1225786 0.09498254 -0.08652321 0.06989133 -0.057827324 -0.104725495 -0.04481409
-0.09285428 0.0103137335 0.09897599 0.23999953 -0.14054942 -0.12879398 -0.07896428 0.07525849
-0.1604817 -0.12421316 -0.19963974 -0.20436475 0.19867921 -0.15938872 -0.053999845 -0.19685335

rel_embeddings.weight f4 [14, 50]
00000000: f74e 143c 1007 33be 97eb 21be 6e32 25be
00000010: 63ba fd3d 2419 823e 6333 613e 3c51 293e
00000020: 0e8e 133d c4b1 203d 2afc b93b a321 303e
00000030: b5fc 993e bd6f 5bbe cfad 3cbe 59b4 87be
00000040: e4ac 943e 3ffc 68be 2a46 9c3e 36b2 173e
00000050: 005b a5bc 7ca5 9c3e 4b2f ffbd 7917 52be
00000060: 21a8 69be db9e f73d 7766 84be d7b6 a23d
00000070: 6913 44be d353 81be a6a2 3dbe c7fe 62be
00000080: e2be 20be 2100 cfbd fb9b 4c3e e50d 233e
00000090: f8f5 6b3e 278d 153e 54ca 0dbe abfa e0bd
000000a0: 09ef 7dbb 649e 473d def1 64be aaf9 97be
000000b0: 519d 0cbe b203 cd3d 6f82 923d de79 8ebe
000000c0: 1ea6 49be 3b3a 943e 36a6 14be 445b 7fbe
000000d0: ad31 bc3d a5a9 c73d fcaf 003d e7d9 dc3d
000000e0: f3a2 313e b915 23be 0f5d acbd d02a f2bd
000000f0: 69d8 793e 4816 1abe 68b0 be3d ce69 3d3e
00000100: 49d2 54be bad3 5dbe b4aa 933e a5ab 16bd
00000110: 90db 2bbd 3998 df3c 1673 6cbe f6c3 763e
00000120: cdac 37be 7ffb 1cbe 3900 153e db0c 3c3e
00000130: b375 633e 40e0 923d d7a0 1bbe a7db 33be
00000140: ae1c 95be bd26 dfbd 47a5 4bbe 5ec3 c4bb
00000150: 727c 09be 703a 8fbe 4332 f7bd 136f ca3d
00000160: 4ebc 0fbd 2fe8 dabc 04e6 0bbe 783b 5ebe
00000170: 15c1 813d 20c6 783c 78c2 603e 3dac e23d
00000180: 2d10 be3d e7dd fdbd 9c37 fa3c 8371 1fbe
00000190: 780f 0b3e 6797 02be d7c1 87be c7e7 873e
000001a0: 4701 0f3e 42ac 263e a562 8d3e 2487 223e
000001b0: 21a1 a3bd 6820 753d f716 ec3d 7d1d 1d3e
000001c0: e27f eb3c faac 233e 58f7 35bd bc5a 42bb
000001d0: fcef 953e 9c96 da3d 9850 4d3e fcd2 a93d
000001e0: 0532 0a3e 42e2 b43d b01d 1c3e 6327 9ebc
000001f0: 8e1a d63d 2723 853e 86d6 853e ca68 e63c
00000200: 6369 1a3d 1bc2 73be 44d9 bd3d c057 2ebd
00000210: 79da a73d 5e25 973e 6691 c3bc aff7 2e3e
00000220: fa6b dcbd cbfe 99be 59e9 973e aa23 213e
00000230: ba2c 913e b037 80be e112 953e ea65 b1bc
00000240: 006f 613e e3d0 163e 8817 003e 4ac2 8dbe
00000250: 5b8b 033e ad85 89be 7b99 67be dec2 633c
00000260: 8ece febc 50b3 603d 04f5 8e3e fbef 343e
00000270: a3f4 1f3e 259e 903e 7643 133e 2ad4 21be
00000280: 1e9d 5c3e 12cf 5bbd 05ff b53d 9d66 6cbe
00000290: 21b1 b9bd 01cc 183e 70ad 21be 0e0f 00be
000002a0: 71ef 553e 30c2 98bd 6fb7 843e 13f1 f33d
000002b0: 61bf 0cbd e50c 2cbd fe5b 67bd 5972 8fbe
000002c0: 865f 80be b533 b73d c517 95bd eeb7 793e
000002d0: b18e 043e 33d4 40be aaac cfbd aced 6bbd
000002e0: c018 febd dda5 10be e02f 083d f8c5 833e
000002f0: 747e 4ebd 5a52 80be 3515 4a3e 9dcf 81be
00000300: 9ba4 80bd 7c30 96be a410 d03d f5d2 983e
00000310: 71c1 e63d 50c8 673d b2dd d0bd 8ce8 8abe
00000320: 7045 623e b59a 003d fe1f 633e 6ec2 a43d
00000330: 9c57 7b3e 1cc7 84be 2d26 2abb 7111 cf3d
00000340: 1a83 a53e 8062 4d3e 409f 783e 65eb 903e
00000350: ebc1 623e edf5 a33e 6a82 233e 938c bbbd
00000360: b875 b03d 6e83 98bd 8f65 9a3d b5cc d43d
00000370: e820 7c3d 58f4 e1bc 7c92 523d e77b 5fbe
00000380: 8f66 aebe 0074 85be 2702 6fbd 2d57 8ebd
00000390: 0191 72be 9e10 213e a666 6b3e 81d3 883e
000003a0: f65f 8abd 778d f23d 06bf 6dbe 7396 22be
000003b0: 6f70 533d b863 a8bd 715a b7bd 886a 763e
000003c0: 97d8 d13d 00b3 f1bb 01df d73c 55b1 573d
000003d0: e3c3 293e c011 823e c515 ce3d acab b03d
000003e0: a494 3fbd a4e7 24bd b07e 66be 7067 64be
000003f0: fe85 a33d 254f 9dbb 9727 51bd c87d 9dbd
0.00905203 -0.17483163 -0.15812527 -0.16132519 0.12389066 0.25409806 0.21992259 0.16534895
0.036024146 0.03923203 0.0056758123 0.17200331 0.30075613 -0.21429344 -0.18425678 -0.26504782
0.29038155 -0.22752474 0.3052228 0.14814076 -0.020184994 0.30595005 -0.12460192 -0.20516767
-0.22818042 0.12090846 -0.25859424 0.0794503 -0.1914803 -0.25259265 -0.18519077 -0.22167502
-0.15697816 -0.101074465 0.19981377 0.15923269 0.23043048 0.14604627 -0.13846713 -0.10985311
-0.0038747212 0.048735037 -0.2235789 -0.29682666 -0.13731886 0.100104704 0.071537845 -0.27827352
-0.19692275 0.28950676 -0.1451653 -0.24937159 0.091891624 0.09749154 0.03141783 0.10783749
0.17347316 -0.15926255 -0.08416187 -0.11824572 0.2439896 -0.15047562 0.093109906 0.18497393
-0.20783342 -0.21662799 0.28841174 -0.036784787 -0.041957438 0.027294265 -0.23090777 0.2409819
-0.17937012 -0.15330313 0.14550866 0.18364279 0.22212867 0.071716785 -0.15198074 -0.1756426
-0.29123443 -0.108960606 -0.19887267 -0.006004735 -0.13426378 -0.27974272 -0.120701335 0.09884467
-0.03509169 -0.026722042 -0.13661963 -0.21702373 0.063356556 0.015183955 0.21949184 0.11068008
0.09280429 -0.1239584 0.030544095 -0.15570645 0.1358012 -0.12753068 -0.26515076 0.2654402
0.13965331 0.16276649 0.27614322 0.15871865 -0.07989717 0.059845358 0.11527818 0.1534328
0.028747503 0.15983954 -0.04442534 -0.0029656133 0.29284656 0.10673258 0.20050275 0.08292195
0.13495643 0.08832218 0.152457 -0.01930589 0.10454284 0.26003382 0.2614023 0.02812614
0.03769816 -0.23804514 0.09269956 -0.042564154 0.08195967 0.29520696 -0.023873042 0.17086671
-0.107627824 -0.30077204 0.29670218 0.15736261 0.28354436 -0.25042486 0.29115966 -0.021655042
0.22015 0.14728121 0.12508976 -0.27687293 0.12846129 -0.268598 -0.22617142 0.01390144
-0.031104352 0.054858506 0.27921307 0.1766967 0.15620665 0.28245655 0.14381203 -0.1580359
0.2154431 -0.053664275 0.08886532 -0.23086019 -0.09066988 0.14921571 -0.15788817 -0.12505743
0.20892121 -0.07458913 0.259212 0.11911216 -0.0343622 -0.042004485 -0.056484215 -0.28016928
-0.2507288 0.08945409 -0.07279924 0.2438657 0.12945057 -0.18830948 -0.10140355 -0.05759971
-0.124070644 -0.14125772 0.033248782 0.25736976 -0.050413564 -0.2506283 0.19734652 -0.2535371
-0.06281396 -0.29333866 0.10159424 0.29848447 0.11267365 0.056587517 -0.10198535 -0.27130544
0.22096801 0.03139754 0.22180173 0.08044897 0.24545139 -0.25933158 -0.0025962696 0.101107486
0.32326585 0.20057106 0.24279499 0.28304592 0.22144286 0.32023564 0.15967718 -0.09157672
0.08616203 -0.07446943 0.07538902 0.10390607 0.06155482 -0.027582332 0.05140923 -0.21824609
-0.3406262 -0.26065063 -0.058351662 -0.06950221 -0.23688127 0.15728995 0.22988376 0.26723865
-0.06756584 0.118433885 -0.23217401 -0.15877704 0.051620897 -0.08222145 -0.08952797 0.24064076
0.10246389 -0.007376075 0.026351454 0.05265935 0.16578631 0.25404167 0.10062746 0.08626494
-0.046772614 -0.040259972 -0.22509265 -0.22305083 0.07984541 -0.0048006945 -0.051063146 -0.076900065
